models/latest.pt (torch_old, 211068 bytes, 268 tensors)

mask_feature.cnn3D_0.weight f4 [8, 1, 1, 1, 1]
0	0xbe88109c	-0.26575172
1	0x3dadee40	0.08492708
2	0x3f7bc462	0.9834653
3	0xbee84bb0	-0.45370245
4	0x3e6bbcd8	0.23021257
5	0xbf654cd4	-0.89570355
6	0x3f79de6a	0.97605
7	0x3f6500dc	0.89454436

mask_feature.cnn3D_0.bias f4 [8]
0	0x3f41cef0	0.75706387
1	0xbf1a20ae	-0.60206115
2	0x3f5fe524	0.87459016
3	0x3f23249c	0.63727736
4	0xbf12c156	-0.5732626
5	0x3e51d620	0.20491838
6	0xbf372580	-0.71541595
7	0x3eda87c0	0.42681694

mask_feature.cnn3D_1.weight f4 [16, 8, 3, 3, 3]
0	0x3b839660	0.004015729
1	0xbcdf7c16	-0.027280848
2	0x3d1dac54	0.038494423
3	0x3d38a464	0.04507865
4	0xbce618d6	-0.028088015
5	0xbcf748fe	-0.030186173
6	0xbb055d40	-0.002034977
7	0x3d1a5ec0	0.037688017
8	0x3cdea6c0	0.027179122
9	0x3bb63c60	0.0055613965
10	0x3d07a0e0	0.033112407
11	0x3d6f3a58	0.05840525
12	0xbc66afb4	-0.014079977
13	0xbd4a1130	-0.049332798
14	0x3ccd6a60	0.025075138
15	0xbd4fc078	-0.050720662
16	0x3d22b51e	0.039723508
17	0x3c925770	0.01786396
18	0xbd252778	-0.040320843
19	0x3d1fac26	0.038982533
20	0x3c85cdec	0.016333543
21	0x3d80809c	0.0627453
22	0xbafe3480	-0.0019394308
23	0x3c037fd0	0.008026078
24	0xbb2602e0	-0.0025331303
25	0xbd4f8cdf	-0.050671455
26	0x3d039c2c	0.03213136
27	0xbd05fe1f	-0.032713052
28	0x3d1a2492	0.037632532
29	0x3c7e22d8	0.015511237
30	0x3d656902	0.056008346
31	0xbd1a2298	-0.037630647
32	0xbc2d7edc	-0.010589328
33	0x3d6b9bac	0.057521507
34	0x3d870612	0.06592955
35	0xbc5a451c	-0.013322141
36	0x3d881dde	0.06646322
37	0xbd7fb635	-0.062429626
38	0x3c7801d8	0.015137158
39	0x3d06394e	0.032769494
40	0xbbdced28	-0.0067421384
41	0xbc844ee2	-0.016150896
42	0xbd12ddc8	-0.03585604
43	0xbcc32a0e	-0.023823764
44	0xbd46964b	-0.048483174
45	0xbcb9b300	-0.022668362
46	0x3c9e7094	0.01934079
47	0x3cb7551c	0.02237945
48	0x3c68ada0	0.014201552
49	0xbd815d8a	-0.06316669
50	0x3d847456	0.06467502
51	0x3d2a20d6	0.04153522
52	0x3d1a146a	0.037617125
53	0xbd18f8c9	-0.037346635
54	0xbd4fe1ee	-0.050752573
55	0xbc9b0938	-0.018925294
56	0x3d12c12a	0.035828747
57	0x3c3dc500	0.011582613
58	0x3d516dd0	0.051130116
59	0xbd5617aa	-0.05226866
60	0xbd3f1ad8	-0.04665646
61	0xbb3d38a0	-0.0028872862
62	0xbb906390	-0.0044064
63	0x3d7e71d0	0.06212026
64	0xbc3cb7e8	-0.011518456
65	0xbc3b45b0	-0.011430189
66	0x3d1b012c	0.037842914
67	0x3d3a0896	0.045418344
68	0x3d6a60a4	0.05722107
69	0xbd53ee96	-0.051741205
70	0x3ad0ddc0	0.0015935227
71	0xbd2edc74	-0.04269071
72	0xbd575a61	-0.052576426
73	0x3d2c7022	0.042099126
74	0x3c6f6630	0.014611766
75	0x3d19f268	0.037584692
76	0x3b92f540	0.0044848025
77	0x3d0b7d28	0.034054905
78	0x3c89d458	0.016824886
79	0xbc36c248	-0.011154719
80	0x3c1fbba0	0.009749323
81	0xbd59d99e	-0.05318605
82	0x3d75d1a0	0.060014367
83	0x3d816350	0.063177705
84	0xbcc74c00	-0.024328232
85	0x3d33e31a	0.043917753
86	0xbd72f5dd	-0.059316505
87	0x3c7227f0	0.01478003
88	0xbd2df9c8	-0.042474538
89	0xbd3f728f	-0.04674011
90	0x3d26ccc4	0.040722623
91	0xbd59555f	-0.05305993
92	0xbd3401be	-0.043946974
93	0x3d3dbfea	0.0463256
94	0x3d711560	0.058858275
95	0xbd64dbaa	-0.05587355
96	0x3bce73c0	0.0063004196
97	0x3c8351cc	0.016030215
98	0x3d87f1ee	0.06637941
99	0xbc78fab0	-0.015196487
100	0x3d36f656	0.044668518
101	0x3cdbc4d4	0.026827253
102	0xbd0f55e3	-0.034994017
103	0x3c2160c8	0.009849735
104	0x3d3c4aec	0.04596989
105	0xbd6f04e7	-0.058354285
106	0xbd39d8d7	-0.04537281
107	0x3ca91468	0.020639613
108	0xbc93e5ae	-0.018053856
109	0x38c9f800	9.6306205e-05
110	0x3d88b12c	0.06674418
111	0xbd29d3ac	-0.04146163
112	0xbd21e817	-0.03952798
113	0xbc9d2fe0	-0.019187868
114	0x3d7a4d04	0.061108604
115	0xbd7fccce	-0.062451176
116	0x3d8b1726	0.067915246
117	0x3bca4b80	0.006173551
118	0x3d84f844	0.064926654
119	0xbd172438	-0.036899775
120	0x3c3ac710	0.011399999
121	0xbbab27b0	-0.005223237
122	0xbd4c3eff	-0.049864765
123	0x3c894cdc	0.016760282
124	0xbc99679a	-0.018726159
125	0x3d5de886	0.05417683
126	0xbd17b863	-0.03704108
127	0x3cca9ea8	0.024733856
128	0x3d27ea8a	0.04099516
129	0x3caf9280	0.021432161
130	0x3d049652	0.03236992
131	0x3d6b366c	0.057424948
132	0xbd4ff736	-0.050772868
133	0xbd40d0f8	-0.047074288
134	0x3c0c0308	0.008545645
135	0x3d0ac598	0.033879846
136	0xbd365b24	-0.044520512
137	0xbd04a705	-0.032385845
138	0xbcc39882	-0.023876432
139	0x3d7788b4	0.060433105
140	0x3d60dc62	0.054897673
141	0xbcff01a8	-0.03112872
142	0xbcd08822	-0.025455538
143	0xbc117a6c	-0.008879285
144	0xbca050b2	-0.019569729
145	0xbc997d60	-0.018736541
146	0x3cb6c568	0.022310928
147	0xbcc37394	-0.023858823
148	0xbd89fb5f	-0.06737398
149	0x3b8fe190	0.004390903
150	0x3cbed8a8	0.02329667
151	0x3cacd420	0.021097243
152	0xbd49db62	-0.049281485
153	0xbc3170e0	-0.010830134
154	0xbd33f714	-0.043936804
155	0xbd62c9fa	-0.0553684
156	0xbce461c4	-0.02787865
157	0x3d584652	0.052801438
158	0xbca063ea	-0.019578893
159	0xbcdbeb8c	-0.026845716
160	0xbd3c61c7	-0.045991685
161	0xbc8da5dc	-0.017291002
162	0xbd5aa707	-0.053381946
163	0x3d2020ca	0.03909377
164	0xbd6c17fd	-0.057640065
165	0x3d020ba6	0.03174939
166	0xbace4d40	-0.0015739575
167	0xbbe6d3e8	-0.007044304
168	0xbd28b2a8	-0.041186005
169	0xbd4b2243	-0.04959322
170	0xbc4a142c	-0.012333911
171	0x3c951ad4	0.01820127
172	0x3d7ce880	0.061745167
173	0x3c804e2c	0.015662275
174	0xbd5cd2de	-0.053912036
175	0x3cfd6980	0.030934095
176	0x3d88d68c	0.066815466
177	0x3c9251ac	0.01786121
178	0x3d034b20	0.032054067
179	0xbc89b768	-0.016811088
180	0xbbcfa728	-0.0063370652
181	0xbd1cf106	-0.038315795
182	0x3b8de6f0	0.0043305084
183	0x3c9f6728	0.019458368
184	0xbd2d836e	-0.04236167
185	0x3d2cb2bc	0.042162642
186	0x3a6d0180	0.0009041056
187	0x3c743b90	0.014906779
188	0x3d855a66	0.06511383
189	0xbbcb8b20	-0.0062116534
190	0xbcd541bc	-0.026032321
191	0x3d7612f4	0.06007667
192	0x3d3d69ba	0.046243407
193	0x3d563402	0.052295692
194	0xbc24b904	-0.010053877
195	0xbd4d0a5b	-0.050058704
196	0xbd5cbd52	-0.053891487
197	0xbb7757e0	-0.0037741587
198	0x3d821ede	0.06353544
199	0x3d471b20	0.048609853
200	0x3d16467c	0.036688313
201	0x3cbf6ef0	0.023368329
202	0x3c0faf88	0.008769877
203	0x3d424f90	0.047439158
204	0xbbe5a998	-0.0070087425
205	0xbd78d79e	-0.060752504
206	0x3d6f7640	0.05846238
207	0xbd1c7285	-0.03819515
208	0x3b962750	0.004582323
209	0xbcf173a6	-0.02947409
210	0xbcdc090c	-0.026859783
211	0x3d7777f0	0.060417116
212	0xbcb0f666	-0.021601867
213	0x3d18f878	0.037346333
214	0xbd839b60	-0.0642612
215	0xbd1015ad	-0.03517692
216	0xbc86f4ee	-0.016474213
217	0x3c186ef8	0.009303801
218	0xbb8b7f60	-0.0042571276
219	0x3d5626a4	0.052282944
220	0x3c7a6448	0.015282698
221	0x3c28aef8	0.010295622
222	0xbd7a6944	-0.061135545
223	0xbd35bb84	-0.044368282
224	0xbc8a4a76	-0.016881209
225	0x3c942b64	0.018087097
226	0xbd35dcae	-0.04439991
227	0xbd18d1b8	-0.03730938
228	0x3d0b8e28	0.034071118
229	0xbd1781aa	-0.03698889
230	0x3c6fe458	0.014641844
231	0xbd431506	-0.04762747
232	0xbd3033ef	-0.043018278
233	0xbcf8911a	-0.030342627
234	0x3d19dfa6	0.037566803
235	0x3d6fcd40	0.05854535
236	0x3ca0bdfc	0.019621842
237	0x3cb32c88	0.02187182
238	0x3c15aa80	0.009134889
239	0x3c312fc8	0.010814615
240	0x3d12fc6a	0.035885252
241	0x3d86c334	0.06580201
242	0xbd665ecb	-0.056242745
243	0x3d040ab4	0.03223677
244	0xbbcd6be8	-0.006268967
245	0xbca0f50c	-0.019648097
246	0xbd185e3d	-0.037199248
247	0x3d772e1c	0.060346708
248	0x3b8b43e0	0.0042500347
249	0x3c5f7b80	0.013640285
250	0xbd0205bc	-0.03174375
251	0x3bb7afc0	0.005605668
252	0x3d77259c	0.0603386
253	0x3be6a8a0	0.0070391446
254	0x3ac4de80	0.0015019923
255	0x3ce03eec	0.027373753

mask_feature.cnn3D_1.bias f4 [16]
0	0xbd6f5526	-0.058430813
1	0x3c806398	0.01567249
2	0xbcd276f6	-0.02569149
3	0xbd87dd9e	-0.06634067
4	0xbbca6048	-0.0061760284
5	0x3d086f32	0.03330917
6	0x3d35a70e	0.04434877
7	0x3c4d6600	0.012536526
8	0xbcd6586e	-0.026165213
9	0xbcfd0ddc	-0.030890398
10	0xbd59a8bd	-0.053139437
11	0x3d4d2a40	0.05008912
12	0xbbebb500	-0.0071932077
13	0xbd88cb42	-0.06679393
14	0x3ca0f700	0.019649029
15	0x3cda6c58	0.02666299

mask_feature.cnn3D_2.weight f4 [8, 16, 1, 1, 1]
0	0xbe2be1c6	-0.16785344
1	0xbcbcd7b0	-0.023052067
2	0x3e3ca6ee	0.18423054
3	0x3cdea9d0	0.027180582
4	0xbcd09c50	-0.02546516
5	0xbd532458	-0.051548332
6	0xbe555250	-0.20832181
7	0x3e0bd0d2	0.13653877
8	0x3e62deaa	0.22155252
9	0xbe309c2c	-0.17247075
10	0x3e5c0a64	0.21488339
11	0xbe1e2816	-0.15444979
12	0x3e281bc8	0.16416848
13	0xbdf84a74	-0.12123576
14	0xbd85c3cc	-0.06531486
15	0xbe6f3812	-0.23361233
16	0x3cfde650	0.03099361
17	0xbe4c897e	-0.19974324
18	0xbd8c60fc	-0.06854436
19	0xbcf12220	-0.029435217
20	0xbde49e40	-0.11162996
21	0x3c5a87a0	0.013338
22	0xbe352aa4	-0.17692047
23	0x3dba8c94	0.091088444
24	0x3e24fdb0	0.16112399
25	0xbd00e6c0	-0.03147006
26	0x3db5d020	0.08877587
27	0xbe71f3ce	-0.2362816
28	0x3e09cdd8	0.1345743
29	0x3e2e0cfc	0.1699714
30	0x3d37e080	0.044891834
31	0xbd00dee0	-0.03146255
32	0x3d821db4	0.06353322
33	0x3e579fc8	0.21057045
34	0xbe1efeb4	-0.15526849
35	0xbe333a7e	-0.17502782
36	0xbe2f6ac4	-0.17130572
37	0xbe1bf15e	-0.15228793
38	0xbe140546	-0.14455137
39	0x3c8235a0	0.015894711
40	0xbe41832c	-0.18897694
41	0x3e76fb66	0.24119338
42	0x3e34e98c	0.17667216
43	0xbe30839a	-0.17237702
44	0xbe2bba9a	-0.16770402
45	0xbd6c0000	-0.057617188
46	0x3e7dc7a6	0.24783191
47	0xbdb0e83c	-0.08638045
48	0xbdc66128	-0.096865
49	0x3d46b238	0.048509806
50	0x3e5288ce	0.2056
51	0xbe452678	-0.19252956
52	0x3e3b15f6	0.18270096
53	0x3e336fa6	0.17523059
54	0xbdb2d528	-0.087320626
55	0xbdabd204	-0.08389667
56	0xbd92815c	-0.071535796
57	0x3bb70140	0.005584866
58	0x3cbac2c0	0.022797942
59	0xbd27a548	-0.04092911
60	0x3e4cef94	0.20013267
61	0xbe4b37e8	-0.19845545
62	0x3e0bbde8	0.13646662
63	0x3e73e47a	0.23817626
64	0x3c50f360	0.012753338
65	0xbdd62a10	-0.104572415
66	0xbdd7e380	-0.10541439
67	0x3e46c00c	0.19409198
68	0x3ddf1164	0.10891989
69	0xbe352410	-0.17689538
70	0xbe452d86	-0.19255647
71	0x3c5c3520	0.0134404
72	0x3e638ecc	0.22222441
73	0xbe679b3a	-0.22617808
74	0x3e7e6d78	0.24846447
75	0xbe15e9e6	-0.14640006
76	0x3e3dc9b6	0.18533978
77	0xbe24910a	-0.16070953
78	0x3e5797b8	0.2105397
79	0xbd492690	-0.04910904
80	0x3e6a0e90	0.22857118
81	0x3e2af80e	0.16696188
82	0x3e79b742	0.24386314
83	0xbdf19834	-0.117966086
84	0x3db298f8	0.08720583
85	0xbdd3b980	-0.10338116
86	0xbd56d978	-0.052453488
87	0x3d813acc	0.06310043
88	0xbe1f095c	-0.15530914
89	0x3d3a1580	0.04543066
90	0xbe2d484e	-0.16922113
91	0xbe0fb1be	-0.14032647
92	0xbd5f22f0	-0.05447668
93	0x3e201748	0.15633881
94	0xbe7ede66	-0.24889526
95	0x3d60ef10	0.054915488
96	0xbe747682	-0.23873332
97	0xbae01600	-0.00170964
98	0xbe15b9ee	-0.14621708
99	0xbe22125c	-0.15827316
100	0xbaebe900	-0.0017998517
101	0x3c0a57c0	0.008443773
102	0xbe0114d6	-0.12605605
103	0x3e15e880	0.14639473
104	0x3cf219b0	0.029553264
105	0xbd772558	-0.06033835
106	0xbdc45e98	-0.09588355
107	0x3dc05ca0	0.09392667
108	0xbe787874	-0.24264699
109	0xbe6e2b2e	-0.23258659
110	0x3c966340	0.018357873
111	0x3e3cd830	0.18441844
112	0x3e376b56	0.17912039
113	0x3e510198	0.20410764
114	0x3dca4de0	0.09878135
115	0xbd052b60	-0.03251207
116	0xbc503340	-0.012707531
117	0xbd3ab340	-0.045581102
118	0x3e7c2568	0.24623644
119	0x3e456c54	0.19279605
120	0x3d85e51c	0.0653784
121	0xbe3163d0	-0.17323232
122	0xbd1d6f18	-0.038436025
123	0xbd9af968	-0.07567102
124	0xbe4aefcc	-0.19818038
125	0x3e79bafe	0.24387738
126	0x3d3a6248	0.045503885
127	0xbdf48040	-0.11938524

mask_feature.cnn3D_2.bias f4 [8]
0	0x3e7224dc	0.23646873
1	0xbd090830	-0.033455074
2	0x3e283248	0.16425431
3	0x3e4fa538	0.2027787
4	0x3de9ac84	0.11409858
5	0x3d3b54c0	0.04573512
6	0xbde9ffbc	-0.114257306
7	0x3e7fa74e	0.24966165

frame_features.cnn3D_0.weight f4 [8, 1, 1, 1, 1]
0	0xbc632e10	-0.013865963
1	0xba3b5a27	-0.00071469176
2	0xbdec2e81	-0.115323074
3	0xbb0037b2	-0.0019564447
4	0xb9b47c6f	-0.00034424986
5	0x3e8cae19	0.27476576
6	0xb70aa77e	-8.264438e-06
7	0xba8839fb	-0.0010393256

frame_features.cnn3D_0.bias f4 [8]
0	0xbea701b5	-0.3261849
1	0xbde860ab	-0.11346563
2	0xbf529074	-0.8225167
3	0xbeb49b65	-0.35274807
4	0xbe01aa6b	-0.12662666
5	0xbe861b61	-0.26192763
6	0x3e66cc0a	0.22538772
7	0x3d05c4ab	0.03265826

frame_features.cnn3D_1.weight f4 [16, 8, 3, 3, 3]
0	0x3beb05d9	0.007172328
1	0x3c243a0b	0.010023604
2	0x3c902dc5	0.01759995
3	0xbb2d05d6	-0.0026401184
4	0x3c1dc6fe	0.009629963
5	0x3b2acedf	0.0026063246
6	0x3ca0ebe5	0.019643733
7	0x3c57fa69	0.013182261
8	0x39f9f3e3	0.0004767469
9	0x3bc1e3d5	0.0059170523
10	0x3c153188	0.009106047
11	0x3c510e51	0.012759761
12	0x3bb2e47f	0.0054593678
13	0x3b9c3f98	0.004768323
14	0x3bf2a3c2	0.0074047754
15	0x3c045cd7	0.008078775
16	0x38d458a9	0.00010125462
17	0x3c0f4eef	0.008746847
18	0x3b7fb1db	0.0039015922
19	0x3c53cc3e	0.012927113
20	0x3ae185f3	0.0017206058
21	0xbb06fcf0	-0.002059754
22	0x3c43a7e4	0.011941884
23	0x3c83ac0d	0.016073251
24	0x3c62a46c	0.013833147
25	0xbb258be3	-0.002526038
26	0x3c18ba2c	0.009321731
27	0x3c7bfad2	0.015379624
28	0x3c7a1473	0.015263665
29	0x3c78ea6e	0.015192611
30	0x3c6337e3	0.013868305
31	0x3c8aa481	0.016924145
32	0x3c77e720	0.015130788
33	0x3c7d05b0	0.015443251
34	0x3c6abf20	0.014327794
35	0x3c81a0c0	0.015823722
36	0x3c674073	0.014114487
37	0x3c7b5930	0.015341088
38	0x3c766a24	0.015039954
39	0x3c82e6b6	0.015979152
40	0x3c881666	0.016612243
41	0x3c787f24	0.015167031
42	0x3c860c6d	0.016363347
43	0x3c6d99ec	0.01450203
44	0x3c7c3d70	0.015395507
45	0x3c80c4cd	0.015718842
46	0x3c7bd1c4	0.015369836
47	0x3c7dbbd6	0.015486678
48	0x3c876c08	0.016531006
49	0x3c797f84	0.015228156
50	0x3c7debde	0.01549813
51	0x3c825851	0.015911253
52	0x3c85aae6	0.016316842
53	0x3c71b53d	0.014752683
54	0xbc7a6be5	-0.015284513
55	0x3c10823d	0.008820114
56	0x3cd82de0	0.026389062
57	0xbb9bd05f	-0.0047550644
58	0x3be2a594	0.006916711
59	0xbc34a8b8	-0.011026554
60	0xbc39981a	-0.011327768
61	0x3c9184a2	0.01776344
62	0xbc940985	-0.018070946
63	0x3b40168d	0.0029310316
64	0xbc860301	-0.016358854
65	0xbaf52cd2	-0.0018705374
66	0xbc9816df	-0.018565593
67	0x3cca43ca	0.024690527
68	0x390d6f45	0.00013488259
69	0x3cb95bd7	0.0226268
70	0x3c1ba69c	0.009500172
71	0x3b586b19	0.003302282
72	0x3a4409f5	0.00074782904
73	0x3c7eeab3	0.015558886
74	0x3ceaec63	0.028677171
75	0x3cf25cd3	0.029585278
76	0xbc69ded5	-0.014274319
77	0x3c0d8261	0.008637042
78	0x3caf9cdc	0.021437101
79	0xbc079c12	-0.008276956
80	0xbbe60627	-0.0070197764
81	0x3c31617c	0.010826465
82	0x3b79da8b	0.0038124647
83	0x3c466725	0.0121095525
84	0x3c074668	0.008256532
85	0x3caa949a	0.020822812
86	0x3c17fab9	0.0092760855
87	0x3bb4e4d7	0.005520444
88	0x3c04e74b	0.008111785
89	0xbb91fc16	-0.0044551
90	0x3b2cad16	0.0026348284
91	0x3c1a1ae3	0.009405824
92	0x3c2a14f8	0.010380976
93	0x3b1841a1	0.0023232477
94	0x3c8e28ab	0.017353376
95	0x3c8aeecb	0.016959568
96	0x3c7bceaa	0.015369097
97	0x3ca91b84	0.020643003
98	0x3b8e16c8	0.004336212
99	0x3bccb523	0.006247179
100	0x3c0652cf	0.008198454
101	0x3c82c70b	0.015964052
102	0x3c03e672	0.008050548
103	0x39ed4b27	0.00045260155
104	0x3bdaa4e6	0.0066724895
105	0x3bfa9088	0.007646624
106	0x3c1f8ee1	0.009738655
107	0x3b84b2a4	0.004049616
108	0x3c6a9f55	0.014320214
109	0x3c556ec8	0.013026901
110	0x3c8410a4	0.016121216
111	0x3c6b6391	0.014367
112	0x3c6bad7b	0.014384623
113	0x3c3d2e1a	0.011546636
114	0x3c6a3992	0.014295952
115	0x3c6b3c56	0.014357647
116	0x3c7275f4	0.01479863
117	0x3c6f3aa6	0.014601385
118	0x3c880e2f	0.016608326
119	0x3c61bf2d	0.01377849
120	0x3c6bd99e	0.014395146
121	0x3c70899f	0.014681249
122	0x3c6c62f2	0.014427887
123	0x3c78fd52	0.015197115
124	0x3c6948f8	0.0142385885
125	0x3c3e1391	0.011601345
126	0x3c7204d3	0.014771658
127	0x3c82b385	0.015954742
128	0x3c520333	0.012818146
129	0x3c6ab11b	0.014324452
130	0x3c6c7266	0.014431572
131	0x3c8329a6	0.01601107
132	0x3c52afaa	0.012859264
133	0x3c629ab7	0.013830832
134	0x3c87198f	0.01649168
135	0x3c03a24d	0.008034301
136	0x3c0f5b35	0.008749773
137	0x3c469ec0	0.01212281
138	0x3c129e44	0.008948866
139	0x3c3268cd	0.010889244
140	0x3c0481ce	0.0080875885
141	0x3bec78de	0.007216557
142	0x3bc88a33	0.0061199903
143	0x3c5884db	0.013215269
144	0x3b07faf2	0.002074894
145	0x3c8ecd08	0.01743175
146	0x3bee2b67	0.0072683576
147	0x3c10128e	0.008793486
148	0x3cc097f4	0.023509957
149	0x3c2c4b14	0.010515947
150	0x3b9fa109	0.004871492
151	0x3c283dbc	0.010268625
152	0x3cb43959	0.022000002
153	0x3c67df02	0.01415229
154	0x3c701309	0.014652976
155	0x3c4ad16c	0.012379032
156	0x3c3e45a5	0.011613284
157	0x3c9837c4	0.018581279
158	0x3c3c830d	0.011505854
159	0x3c463f37	0.0121000325
160	0x3baf61c2	0.00535223
161	0x3c66501d	0.014057186
162	0xbbd180b1	-0.006393515
163	0xbb54c5ab	-0.0032466452
164	0xbbfb9743	-0.007677944
165	0xbc8ce547	-0.017199172
166	0xbb4cd3e1	-0.003125422
167	0xbc7f09f8	-0.015566342
168	0xbc7ff263	-0.015621754
169	0xbc16c6af	-0.009202643
170	0xbc271c2d	-0.010199589
171	0xbc0133f4	-0.007885922
172	0xbc1c060b	-0.009522925
173	0xbc8ed2eb	-0.017434558
174	0xbb6c4a74	-0.003605512
175	0xbbc3e67f	-0.005978405
176	0xbbcc7528	-0.006239552
177	0xbc1cae92	-0.009563105
178	0xbc80957a	-0.015696276
179	0xbc20e89d	-0.009821084
180	0xbbb5eedd	-0.0055521564
181	0xbc6f9988	-0.014624007
182	0xbc30e9c4	-0.010797922
183	0xbc42898c	-0.011873614
184	0xbc57e143	-0.013176265
185	0xbc2d5cd1	-0.010581211
186	0xbc5eb03d	-0.013591823
187	0xbc005166	-0.007831907
188	0xbc4e5989	-0.012594589
189	0xbcd6a58e	-0.02620199
190	0xbcd69ac6	-0.026196849
191	0xbcd69e23	-0.026198452
192	0xbcd6a007	-0.026199354
193	0xbcd6aa3d	-0.026204223
194	0xbcd6a68a	-0.026202459
195	0xbcd6a2b8	-0.026200637
196	0xbcd6a043	-0.026199466
197	0xbcd6b89d	-0.026211077
198	0xbcd6a1f3	-0.02620027
199	0xbcd688b1	-0.026188226
200	0xbcd6968c	-0.026194833
201	0xbcd687f4	-0.026187874
202	0xbcd6678e	-0.026172426
203	0xbcd69694	-0.026194848
204	0xbcd6a494	-0.026201524
205	0xbcd6a0a4	-0.026199646
206	0xbcd6be87	-0.026213897
207	0xbcd6a21c	-0.026200347
208	0xbcd67e89	-0.026183384
209	0xbcd69ef2	-0.026198838
210	0xbcd68646	-0.026187073
211	0xbcd65ccc	-0.026167296
212	0xbcd697cb	-0.026195427
213	0xbcd6a7b9	-0.026203023
214	0xbcd6a308	-0.026200786
215	0xbcd6b9d8	-0.026211664
216	0x3cd3a6b7	0.025836332
217	0x3cd2af1a	0.02571826
218	0x3cd74550	0.026278168
219	0x3cd37f61	0.025817575
220	0x3cd0b671	0.02547762
221	0x3cb8dc54	0.022565998
222	0x3cdc6ae4	0.026906438
223	0x3cdabee8	0.02670236
224	0x3cbdbfbd	0.023162717
225	0x3ccfc465	0.025362203
226	0x3cd22d58	0.025656387
227	0x3cbf11fa	0.023324002
228	0x3cd329ea	0.025776822
229	0x3cdc9852	0.0269281
230	0x3caf9116	0.021431487
231	0x3ce0e23f	0.027451633
232	0x3cbc1d64	0.022963233
233	0x3cb841b8	0.022492275
234	0x3cd56440	0.02604878
235	0x3ccc2fb9	0.0249251
236	0x3cb28852	0.021793518
237	0x3cdada81	0.026715519
238	0x3cdc7675	0.026911953
239	0x3cc74c24	0.024328299
240	0x3ccb9ce1	0.02485508
241	0x3cb95c87	0.022627128
242	0x3cd1b1d1	0.025597485
243	0x3cabcdd2	0.020972166
244	0x3cac237a	0.02101301
245	0x3cabde4a	0.02098002
246	0x3cabf48b	0.02099063
247	0x3cac0fad	0.021003569
248	0x3cabe7a7	0.020984484
249	0x3cabe538	0.020983323
250	0x3cabf9d5	0.020993153
251	0x3cabe8fd	0.02098512
252	0x3cabf2f1	0.020989867
253	0x3cabd3b4	0.020974971
254	0x3cabf985	0.020993004
255	0x3cac0ba7	0.02100165

frame_features.cnn3D_1.bias f4 [16]
0	0xbcb6c3a0	-0.022310078
1	0xbcbdbc44	-0.023161061
2	0x3cfba946	0.030720364
3	0xbb480d8e	-0.0030525657
4	0xbbc8ad0d	-0.006124145
5	0xbd04e153	-0.03244145
6	0x3d3aa47c	0.04556702
7	0x3ba73c65	0.005103635
8	0x3cdba0d5	0.02681009
9	0x3a4ac931	0.00077356683
10	0xbc029234	-0.007969428
11	0xbd10b8e9	-0.035332594
12	0x3cc793b5	0.024362424
13	0xbbcdf8ba	-0.006285754
14	0x3d029c71	0.031887475
15	0x3ca70ebf	0.020392774

frame_features.cnn3D_2.weight f4 [8, 16, 1, 1, 1]
0	0xbb91e79a	-0.004452658
1	0xbcfc523a	-0.030800927
2	0x3cd03cff	0.02541971
3	0x3cfc538f	0.030801563
4	0x3b158c28	0.0022819135
5	0x3af4fe66	0.0018691539
6	0x3ce57744	0.028010972
7	0x3d16f988	0.036859065
8	0x3c2eae8f	0.010661735
9	0x3ccdfaff	0.025144098
10	0xbca120e9	-0.019669013
11	0xbcc02903	-0.023457056
12	0xbbd86811	-0.0066042026
13	0xbb812f31	-0.003942393
14	0x3c7d7c75	0.015471567
15	0x3c0c11cf	0.008549168
16	0x3daabd2d	0.08336864
17	0x3d933570	0.07187927
18	0xbd61eda0	-0.055158257
19	0xbdbc22fa	-0.09186359
20	0x3c67a144	0.01413757
21	0x3d3be9d6	0.0458773
22	0x3c49feb2	0.0123287905
23	0x3ddd3415	0.108009495
24	0xbd8f32cb	-0.0699211
25	0xbc116227	-0.008873499
26	0x3d39f5f6	0.045400582
27	0x3d1c8739	0.038214896
28	0xbbbdf67b	-0.005797205
29	0x3cb8ce80	0.022559404
30	0xbbbd630c	-0.0057796296
31	0x3ced1a48	0.028943196
32	0x2a0ecc89	1.2683096e-13
33	0x3244739f	1.1434991e-08
34	0xa70834db	-1.8902444e-15
35	0xacbd0fd9	-5.3734625e-12
36	0x2b12609f	5.200371e-13
37	0xb5714da2	-8.9892467e-07
38	0x33944e6a	6.9060505e-08
39	0xbb5cb3df	-0.0033676547
40	0xb180193c	-3.728159e-09
41	0x9d62157e	-2.9921962e-21
42	0x18f592f3	6.3479396e-24
43	0x3070849a	8.749993e-10
44	0xb0a929f0	-1.2308288e-09
45	0xb1b95c0e	-5.394674e-09
46	0x36130dca	2.1912733e-06
47	0xb1d3dfb1	-6.166339e-09
48	0x3c7282d4	0.0148017
49	0xbcef1465	-0.02918453
50	0x3cea02c0	0.028565764
51	0x39936a8f	0.00028117417
52	0xbc6d501d	-0.0144844325
53	0x3c7594f0	0.014989123
54	0x3ceade31	0.028670402
55	0x3cdfe542	0.027330998
56	0xbc605d28	-0.013694085
57	0x3cb1165c	0.021617107
58	0x3c291c9a	0.010321761
59	0xbcec93e6	-0.028879117
60	0xbc5fa8a3	-0.013651046
61	0xbc94a7f1	-0.018146487
62	0x3ce1a316	0.027543586
63	0xbc733629	-0.014844456
64	0x3d09ac96	0.033611856
65	0xbd08263d	-0.033239592
66	0x3cab1983	0.020886188
67	0xbccca470	-0.024980754
68	0xbcc650df	-0.024208484
69	0x3d0e9dae	0.034818344
70	0x3cbeb3c0	0.02327907
71	0x3c9dccec	0.019262753
72	0xbd112064	-0.03543128
73	0x3ce91a2f	0.028454868
74	0x3d082c79	0.033245537
75	0xbd001d9b	-0.031278234
76	0xbd13579b	-0.03597222
77	0xbd8ca6a2	-0.0686772
78	0x3c8e3a2d	0.017361725
79	0xbd12c9b1	-0.03583688
80	0x3cd69752	0.026195202
81	0xbc863ffd	-0.016387934
82	0x3cbba0a4	0.022903748
83	0xbc7ddfe5	-0.015495275
84	0xbdb57ad2	-0.08861317
85	0x3d5818fb	0.0527582
86	0x3c38b361	0.011273236
87	0xb9e2d19d	-0.00043262253
88	0xbcec5a16	-0.02885155
89	0x3c858e11	0.016303094
90	0x3c81efb5	0.015861372
91	0xbbf043ba	-0.0073322924
92	0xbd0ace4d	-0.03388815
93	0xbc94d25a	-0.01816671
94	0x3c958cd3	0.018255627
95	0xbcb2091c	-0.02173286
96	0x3c8ac1fd	0.016938204
97	0xbcebdd1a	-0.028791953
98	0xbb5bf6e8	-0.0033563916
99	0xbccaa406	-0.024736416
100	0xbc7935cc	-0.01521058
101	0xbbafc733	-0.0053643226
102	0x3cfb13cb	0.030649086
103	0x3dfdc70a	0.12391479
104	0xbc2500fc	-0.0100710355
105	0x3cbaeab7	0.022816999
106	0x3b4ef9a0	0.0031581894
107	0xbc9c6d97	-0.019095225
108	0xbca1edd5	-0.019766727
109	0x3bb83738	0.005621817
110	0x3dcf3176	0.10116856
111	0xbc4fc7c8	-0.012681909
112	0x3dcd69df	0.10029959
113	0x3d61771b	0.05504523
114	0xbd418849	-0.047249112
115	0xbca2e425	-0.019884178
116	0x3d2f68c0	0.042824507
117	0x3d2f9e2d	0.042875458
118	0xbc842c02	-0.016134266
119	0xbda32ab1	-0.07967127
120	0xbd7686de	-0.060187213
121	0x3d3181cf	0.043336686
122	0x3c9b8ca2	0.018987957
123	0x3d1b6fe5	0.037948508
124	0xbb581b82	-0.003297538
125	0xbdcc3cc0	-0.09972525
126	0x3d0c6623	0.034277093
127	0xbd6c611f	-0.05770981

frame_features.cnn3D_2.bias f4 [8]
0	0x3d89c2c5	0.067266025
1	0x3dcf00b8	0.10107559
2	0x392e4ab0	0.00016621756
3	0x3ccaee89	0.024771946
4	0x3c1c4e89	0.009540209
5	0x3d033337	0.032031264
6	0x3d868c85	0.06569771
7	0x3e1571a9	0.14594139

rnn.weight_ih_l0 f4 [4, 4096]
0	0x3c5ed72c	0.013601106
1	0x3ba7a038	0.005115535
2	0x25df3f0a	3.872705e-16
3	0x3c7ad534	0.015309621
4	0x3b9a6e0b	0.004712825
5	0x3cabffd6	0.020996016
6	0x3c85bf9e	0.016326722
7	0xbb1b692b	-0.0023713808
8	0x3c5ed902	0.013601543
9	0xbd54fae1	-0.05199707
10	0x0d30b722	5.4454625e-31
11	0x3c7aeb67	0.015314913
12	0x3bee2a38	0.0072682165
13	0x3c76ec1d	0.015070942
14	0x3c85c2b0	0.016328186
15	0xbbdebcec	-0.0067974236
16	0x3c5e96f0	0.013585791
17	0x3bf0d808	0.0073499717
18	0x8416725b	-1.7684925e-36
19	0x3c7ae3d7	0.01531311
20	0x3af4031f	0.0018616653
21	0x3ca5c040	0.020233274
22	0x3c82badb	0.01595824
23	0xbcf412ed	-0.02979418
24	0x3c5ecbba	0.013598377
25	0x3b5560c1	0.003255889
26	0x23bda5ce	2.0561642e-17
27	0x3c7af36b	0.015316824
28	0x3b852330	0.0040630326
29	0xbb61a4a5	-0.0034430411
30	0x3c85b49a	0.01632147
31	0x3cb7d7cc	0.022441767
32	0x3c5ed7da	0.013601268
33	0x3b762c5d	0.0037563064
34	0x1487ab30	1.3699038e-26
35	0x3c7af377	0.015316836
36	0xbbe21e69	-0.006900598
37	0x3b54ecbd	0.003248974
38	0x3c85bf72	0.01632664
39	0x3d4798e8	0.048729807
40	0x3c5ed611	0.013600842
41	0xbce7a934	-0.028278925
42	0x2894b559	1.6509948e-14
43	0x3c7af218	0.015316509
44	0x3bf6b83c	0.0075292867
45	0x3ba8ccac	0.005151352
46	0x3c85bfa1	0.016326727
47	0xbc4c3855	-0.0124646025
48	0x3c5ed669	0.013600924
49	0xbc15659a	-0.009118462
50	0x0f3b0764	9.221235e-30
51	0x3c7ae64b	0.015313695
52	0x3bcf8b37	0.0063337344
53	0x3b54165c	0.003236196
54	0x3c84f671	0.016230794
55	0x3bced62e	0.0063121533
56	0x3c5ed7c9	0.013601252
57	0x3d023c99	0.03179607
58	0x00128666	1.701252e-39
59	0x3c7a9fee	0.015296919
60	0x3bf63602	0.0075137625
61	0xbd796266	-0.060884856
62	0x3c85a556	0.01631419
63	0xbc15e034	-0.0091476925
64	0x3c5ea1de	0.013588397
65	0xbb6c92b5	-0.0036098186
66	0x9786f9a2	-8.722563e-25
67	0x3c7a1d9b	0.015265848
68	0x3c06dbf4	0.008231152
69	0x3b52e9b1	0.0032182748
70	0x3c82f67b	0.015986672
71	0xbc359b14	-0.011084337
72	0x3c5e9af5	0.013586749
73	0xbca66327	-0.020310951
74	0x11a84415	2.6547685e-28
75	0x3c7af29f	0.015316634
76	0x3bf54de5	0.0074860924
77	0xbcbfae9d	-0.023398692
78	0x3c82e5ec	0.015978776
79	0xbc3b87b5	-0.011445929
80	0x3c5e3fa0	0.013564974
81	0xbc3af2ac	-0.011410397
82	0x1e334597	9.490572e-21
83	0x3c7a61db	0.01528212
84	0x3b160903	0.0022893555
85	0xbd72f77e	-0.05931806
86	0x3c85bfaa	0.016326744
87	0xbca05510	-0.019571811
88	0x3c5e0d66	0.013552999
89	0x3b40ae43	0.0029400743
90	0x8371959c	-7.099528e-37
91	0x3c7af36f	0.015316828
92	0xbc593541	-0.013257326
93	0xbd17bab5	-0.037043292
94	0x3c8286e4	0.015933461
95	0xbd02ed54	-0.031964615
96	0x3c5eb42b	0.01359276
97	0xbcfab404	-0.030603416
98	0x1d50f9d4	2.7657729e-21
99	0x3c7af2a3	0.015316638
100	0x3c062478	0.008187406
101	0x3b548355	0.0032426913
102	0x3c84fc26	0.016233515
103	0xbb1c2be7	-0.0023829879
104	0x3c5eab1f	0.013590603
105	0x3d6fcb14	0.05854328
106	0x169d0095	2.5365085e-25
107	0x3c7af0b9	0.015316182
108	0x3c1857d3	0.009298283
109	0x3c873ac3	0.016507512
110	0x3c824836	0.015903573
111	0xbbde61fd	-0.0067865835
112	0x3c5ed7d7	0.013601265
113	0xba646808	-0.00087130116
114	0x002b5b1c	3.98161e-39
115	0x3c7ae9ba	0.015314514
116	0x3bf74099	0.0075455424
117	0xbc9783c1	-0.018495442
118	0x3c84b277	0.01619838
119	0xbb8e721f	-0.0043471004
120	0x3c5ed7d9	0.013601267
121	0x3b404d3c	0.002934291
122	0x8ed24c00	-5.1842182e-30
123	0x3c7a5367	0.015278674
124	0x3bf717be	0.007540672
125	0x3d8562e0	0.065129995
126	0x3c85bfab	0.016326746
127	0xbc1daa75	-0.00962316
128	0x3c5e7424	0.013577495
129	0x3d9b9e8d	0.075986005
130	0xa08a1f3d	-2.339878e-19
131	0x3c7af1de	0.015316455
132	0x3c44a8ae	0.012003107
133	0xbd3cc814	-0.046089247
134	0x3c838745	0.016055712
135	0xbd3995bf	-0.045308825
136	0x3c5ea4c0	0.013589084
137	0x3b77574e	0.0037741247
138	0x0017c77d	2.18378e-39
139	0x3c7af37d	0.015316841
140	0x3bf54701	0.007485271
141	0x3d4b9297	0.049700346
142	0x3c8361db	0.016037872
143	0xbbc2ff51	-0.0059508462
144	0x3c5e9483	0.013585213
145	0xbc2f6adc	-0.01070663
146	0x18b0a9ed	4.5666515e-24
147	0x3c7af32a	0.015316764
148	0x3bb6398f	0.0055610607
149	0x3d65a55f	0.056065913
150	0x3c84abec	0.01619526
151	0xbba08706	-0.0048989085
152	0x3c5e784f	0.0135784885
153	0x3b4b5093	0.0031023368
154	0x00408686	5.92573e-39
155	0x3c7a921d	0.015293625
156	0x3d092b54	0.033488587
157	0xbbe96d1c	-0.0071236026
158	0x3c826593	0.015917575
159	0xbc45e180	-0.012077689
160	0x3c5eae13	0.013591307
161	0x3b776855	0.0037751396
162	0xa09496c6	-2.517195e-19
163	0x3c7af186	0.015316373
164	0x3bf64899	0.0075159785
165	0xbbbe6bcf	-0.0058111916
166	0x3c83a9bc	0.016072147
167	0x3c296689	0.010339388
168	0x3c5ed7b6	0.013601234
169	0x3d6d219c	0.05789338
170	0x02d99c1b	3.1974884e-37
171	0x3c7af37d	0.015316841
172	0x3b590f21	0.003312059
173	0x3d99441e	0.074836954
174	0x3c85bb1e	0.016324576
175	0xbd2ba39b	-0.041904073
176	0x3c5e6c10	0.013575569
177	0x3b75d074	0.003750828
178	0x0026b0d0	3.553177e-39
179	0x3c7af37d	0.015316841
180	0x3d0a90bf	0.033829447
181	0xbd1045f7	-0.035222974
182	0x3c8553b2	0.01627526
183	0xbd69c14c	-0.057069108
184	0x3c5ed7af	0.013601228
185	0x3d565743	0.052329313
186	0x87a9e0ef	-2.5560498e-34
187	0x3c7af0f9	0.015316241
188	0x3bf53fc0	0.0074844062
189	0x3d3e8374	0.046512082
190	0x3c85bfb7	0.016326768
191	0x3b1a0207	0.0023499744
192	0x3c5ed566	0.013600683
193	0xbbdc5337	-0.006723787
194	0xa3ccce1a	-2.2205012e-17
195	0x3c7a9f52	0.015296774
196	0x3cb0fcc3	0.021604901
197	0xbc249c98	-0.0100471005
198	0x3c85b8b8	0.016323432
199	0xbbdeba09	-0.0067970795
200	0x3c5ed7eb	0.013601284
201	0x3b761040	0.0037546307
202	0xa88e5c2b	-1.5805138e-14
203	0x3c7af351	0.0153168
204	0xbc10c011	-0.008834855
205	0xbc7ae590	-0.015313521
206	0x3c85be9e	0.016326245
207	0xbbdf716c	-0.006818941
208	0x3c5eb6ab	0.013593356
209	0x3d12ce24	0.035841122
210	0x8d4dc00d	-6.3401675e-31
211	0x3c7aef93	0.015315908
212	0x3c8657e5	0.016399333
213	0x3c729696	0.01480641
214	0x3c83d5b2	0.016093109
215	0x3d068324	0.03283991
216	0x3c5ec6be	0.0135971885
217	0x3b775675	0.0037740741
218	0x002edc76	4.30352e-39
219	0x3c7a94fc	0.01529431
220	0x3c1670e9	0.009182193
221	0x3b54f55d	0.003249488
222	0x3c855320	0.016274989
223	0x3cc83d23	0.024443215
224	0x3c5ea9e4	0.01359031
225	0xbce5db66	-0.028058719
226	0x138c334b	3.5391547e-27
227	0x3c7af379	0.0153168375
228	0x3c59ded9	0.01329776
229	0x3cc03aa7	0.023465468
230	0x3c839d90	0.016066343
231	0x3d40426a	0.046938337
232	0x3c5ed8ef	0.013601526
233	0x3b5cb23c	0.0033675572
234	0x85a5a7df	-1.5578192e-35
235	0x3c7af2c1	0.015316666
236	0x3bac0e21	0.0052507077
237	0x3b5dc661	0.0033840167
238	0x3c85c306	0.016328346
239	0xbc9dc9d9	-0.019261288
240	0x3c5ea448	0.013588972
241	0x3d84e9d6	0.06489913
242	0x0061d94a	8.985992e-39
243	0x3c7ad7d8	0.01531025
244	0x3bf69622	0.0075252214
245	0x3b53c5b3	0.0032313883
246	0x3c8581bb	0.016297212
247	0xbbcbc773	-0.0062188446
248	0x3c5ed7cb	0.013601254
249	0x3d4fa583	0.050694954
250	0x9e2cc868	-9.147047e-21
251	0x3c7af371	0.01531683
252	0x3bf53f43	0.007484348
253	0x3b4a6bee	0.0030887085
254	0x3c8551c8	0.016274348
255	0xbd6dddfd	-0.058073033

rnn.weight_hh_l0 f4 [4, 4]
0	0x3c4f5061	0.012653441
1	0x3dc327f9	0.095291086
2	0xbe0d2426	-0.13783321
3	0x3cabeb58	0.020986244
4	0xbccda13f	-0.025101302
5	0x3b944756	0.0045251055
6	0x3b7561ce	0.003744233
7	0xbcd2878b	-0.025699398
8	0x3d10141c	0.035175428
9	0xbc443a76	-0.011976829
10	0xbb170356	-0.002304276
11	0x3d42f6ab	0.047598522
12	0x3de92943	0.11384823
13	0xbe4c51ad	-0.19953032
14	0xbe2f3c3a	-0.17112818
15	0x3d146b64	0.03623523

rnn.bias_ih_l0 f4 [4]
0	0xbac17b4b	-0.0014761476
1	0x3ccf702c	0.025322042
2	0xbd5031d4	-0.05082877
3	0xbd30c633	-0.043157768

rnn.bias_hh_l0 f4 [4]
0	0x3de7882e	0.11305271
1	0x3b538808	0.0032277126
2	0x3b613711	0.0034365098
3	0x3dde7d78	0.10863775

rnn.weight_ih_l0_reverse f4 [4, 4096]
0	0x3c0a4ce5	0.008441185
1	0xbd4681f3	-0.048463773
2	0x9f5a7162	-4.6257084e-20
3	0x3c00bb1a	0.0078571085
4	0x3b8c1971	0.004275494
5	0xbd4d76b9	-0.05016205
6	0x3b90d7b2	0.004420244
7	0xbc5891f7	-0.0132183945
8	0x3c0b1ef5	0.008491267
9	0x3d7573fd	0.05992507
10	0x0a369d8b	8.792612e-33
11	0x3c02f567	0.007993079
12	0x3b8bedeb	0.0042703054
13	0x3a554d87	0.00081368577
14	0x3bd7bc1b	0.006583703
15	0xbcc0de53	-0.023543512
16	0x3c0afcf0	0.008483157
17	0x3dbb28e7	0.09138661
18	0xa34af629	-1.1002568e-17
19	0x3c011a82	0.007879855
20	0x3b8c74d5	0.0042863884
21	0x3d81d595	0.06339566
22	0xbb4d7a8e	-0.0031353566
23	0x3d761c75	0.060085732
24	0x3c0b3162	0.0084956605
25	0xbdaab0df	-0.08334517
26	0x09c23508	4.675367e-33
27	0x3c00bebb	0.007857974
28	0x3b8be7f2	0.0042695934
29	0x3b52fc66	0.0032193898
30	0x3bd68094	0.0065460894
31	0x3b8b9b4a	0.0042604553
32	0x3c0b2e76	0.008494964
33	0xbd276132	-0.040864177
34	0x11b03c54	2.7805084e-28
35	0x3c01e686	0.007928496
36	0x3b8be901	0.0042697196
37	0x3bfc3fbb	0.007698027
38	0x3bd49c04	0.006488325
39	0x3d36016c	0.04443495
40	0x3c0b3ef1	0.008498893
41	0x3c981289	0.018563526
42	0x9b986228	-2.5209723e-22
43	0x3c00bc9a	0.007857466
44	0x3b8d7079	0.0043163863
45	0x3a11edda	0.00055667537
46	0x3bd4718f	0.006483264
47	0x3b8c6127	0.0042840424
48	0x3c0b3ef1	0.008498893
49	0xbd8bd94b	-0.06828555
50	0x09c4fa09	4.7420416e-33
51	0x3c00d0e7	0.007862306
52	0x3b8c2324	0.00427665
53	0x3ad23ca7	0.0016039804
54	0x3bde2a3c	0.006779937
55	0x3b8b0bf4	0.0042433683
56	0x3c09ddd6	0.008414706
57	0xbde616f8	-0.1123485
58	0x0b426d39	3.744521e-32
59	0x3c036336	0.008019259
60	0x3b8be6bf	0.0042694504
61	0xbd723f07	-0.05914214
62	0x3c0250ce	0.007953836
63	0x3b8be3e4	0.00426911
64	0x3c0b3f81	0.008499027
65	0x3c3bbe35	0.011458923
66	0x0a467cff	9.5568624e-33
67	0x3c00baef	0.007857068
68	0x3b8be6ce	0.0042694574
69	0xbda8d686	-0.08244042
70	0x3bd55be0	0.0065111965
71	0x3b8c8ae3	0.0042890175
72	0x3c0b3f4c	0.008498978
73	0xbbae29db	-0.005315048
74	0xa0b609bd	-3.0838444e-19
75	0x3c039656	0.008031448
76	0xbc501860	-0.012701124
77	0x3cb0ae54	0.021567501
78	0x3bd464a6	0.006481725
79	0x3b8e8c0a	0.00435019
80	0x3c0b3f69	0.008499005
81	0x3b8c32a7	0.004278499
82	0x9db6b0a9	-4.835766e-21
83	0x3c02b8af	0.007978602
84	0x3b954891	0.0045557697
85	0x3cac370d	0.021022344
86	0x3c252a3d	0.010080871
87	0x3c942370	0.018083304
88	0x3c0b3210	0.008495823
89	0xbde8c7dc	-0.11366245
90	0x09c5c287	4.7608958e-33
91	0x3c01e65d	0.007928458
92	0x3b8bea78	0.004269894
93	0xbd8f7eff	-0.070066445
94	0x3c2d416f	0.010574683
95	0xbae5e5e1	-0.0017539823
96	0x3c0af746	0.008481806
97	0x3db6172e	0.0889114
98	0x8f4e4e07	-1.0171612e-29
99	0x3c00baf5	0.007857074
100	0x3b8b1f10	0.0042456463
101	0x3acfb0ff	0.0015845596
102	0x3bdcaaa8	0.006734211
103	0xbd61554a	-0.05501298
104	0x3c0b3cea	0.00849841
105	0x3d764824	0.060127392
106	0x16b9d5bd	3.002325e-25
107	0x3c00bf5e	0.0078581255
108	0x3b8c0051	0.0042724987
109	0x3d88a95a	0.06672926
110	0x3bd49480	0.006487429
111	0xba10edb0	-0.0005528582
112	0x3c0af9a6	0.008482372
113	0x3d6cd9cb	0.05782489
114	0x09c32d00	4.698686e-33
115	0x3c00cb0f	0.007860913
116	0xbb224aaa	-0.0024763742
117	0xbb733773	-0.0037111908
118	0x3bde2884	0.006779732
119	0xbc41ea5b	-0.01183566
120	0x3c0b3ef0	0.008498892
121	0xbd40d042	-0.04707361
122	0x20bb7d78	3.176206e-19
123	0x3c00bb66	0.007857179
124	0xbc5b28a3	-0.013376388
125	0x3c94b1bb	0.018151155
126	0x3bd482d7	0.006485324
127	0xbd3b5ade	-0.045740955
128	0x3c0b3704	0.0084970035
129	0x3c209142	0.009800257
130	0x18f76987	6.395456e-24
131	0x3c00baf1	0.00785707
132	0x3b8c61d9	0.0042841253
133	0xbd7f5e7e	-0.062345974
134	0x3bd47b2c	0.00648441
135	0x3b96e655	0.0046050944
136	0x3c0a9a60	0.008459657
137	0xbd6fda6f	-0.058557924
138	0x09c93a85	4.844402e-33
139	0x3c0128ff	0.007883309
140	0x3b8be73a	0.0042695077
141	0xbc9eaa6a	-0.01936837
142	0x3bd49e49	0.0064885956
143	0xbd57f2c1	-0.052721743
144	0x3c0b40c1	0.008499325
145	0xbcd50361	-0.026002588
146	0x96cb92ed	-3.2889142e-25
147	0x3c00d23d	0.007862625
148	0x3b8be863	0.004269646
149	0x3cb57beb	0.022153815
150	0x3bd8499b	0.0066005713
151	0xbc7af6c2	-0.015317621
152	0x3c0b44f3	0.0085003255
153	0xbc953009	-0.018211382
154	0xa59e9ec3	-2.7516212e-16
155	0x3c00bc50	0.007857397
156	0xbbb404dd	-0.005493744
157	0x3a9335e5	0.0011231272
158	0x3bd4ccdb	0.0064941472
159	0xbb9e2643	-0.0048263385
160	0x3c0b122b	0.008488218
161	0x3b1d3b20	0.002399154
162	0x935d29ea	-2.7914787e-27
163	0x3c0275b1	0.00796263
164	0x3b8bf5aa	0.004271229
165	0x3d9aa4f5	0.07550994
166	0x3bd4c363	0.0064930185
167	0x3b8ad305	0.0042365813
168	0x3c0b329b	0.008495952
169	0xbd160ac3	-0.036631357
170	0x1b434919	1.6153641e-22
171	0x3c00baee	0.0078570675
172	0x3b91defd	0.004451631
173	0x3ac7ce72	0.0015244021
174	0x3bdf6ade	0.0068181595
175	0xbcd7456c	-0.02627822
176	0x3c0a5385	0.008442764
177	0x3ab33f57	0.0013675493
178	0x11830634	2.0671979e-28
179	0x3c0312b8	0.008000068
180	0x3cad65a7	0.021166636
181	0xbcc007b9	-0.023441182
182	0x3c25f5c9	0.0101294005
183	0x3b8ad47d	0.0042367564
184	0x3c0b067e	0.008485435
185	0x3b19d255	0.0023471315
186	0x2444d9a0	4.268506e-17
187	0x3c00ddb4	0.007865358
188	0x3b8bef7c	0.004270492
189	0x3aa6b997	0.0012720105
190	0x3be99c07	0.0071291956
191	0x3b8a0cc5	0.004212948
192	0x3c0b3f6e	0.00849901
193	0xb9d04bfb	-0.0003972946
194	0x99044eb0	-6.840131e-24
195	0x3c0407e2	0.00805852
196	0x3b8be7fe	0.004269599
197	0x3d4fe4e5	0.0507554
198	0x3bd45bc9	0.006480668
199	0x3d7aed59	0.06126151
200	0x3c0b3efd	0.008498904
201	0x3b036d2b	0.0020054083
202	0xaa295683	-1.504023e-13
203	0x3c00d122	0.007862361
204	0x3b8cd0d1	0.004297354
205	0x3d684690	0.05670792
206	0x3bd4d755	0.006495396
207	0xbc8fad97	-0.017538829
208	0x3c0b3a48	0.008497782
209	0x3d632cd5	0.055462677
210	0x09cf35bf	4.988398e-33
211	0x3c019a7a	0.007910365
212	0x3b2a5f62	0.0025996794
213	0x3acfd2f8	0.001585572
214	0x3bd4ba28	0.006491918
215	0x3b8b0704	0.0042427797
216	0x3c0b3b1f	0.008497982
217	0xbdf9387c	-0.12168977
218	0x27878bb6	3.76215e-15
219	0x3c017607	0.007901675
220	0x3c983850	0.01858154
221	0x3d4c6320	0.04989922
222	0x3bd45ebb	0.0064810193
223	0x3c34a94c	0.011026692
224	0x3c0b4585	0.0085004615
225	0x3de4054d	0.111338235
226	0x230f0d0f	7.754811e-18
227	0x3c02e440	0.007988989
228	0x3b8c24b0	0.0042768344
229	0x3c79a156	0.015236219
230	0x3af9ac10	0.0019048471
231	0x3b8cdf2b	0.0042990646
232	0x3c0b3c76	0.008498302
233	0xbdafcf3f	-0.08584451
234	0xa7598989	-3.0189358e-15
235	0x3c03b053	0.008037644
236	0x3b8bf25b	0.0042708344
237	0x3da6b253	0.081394814
238	0x3bd5c7ed	0.006524077
239	0x3c8082df	0.015687404
240	0x3c0b3c26	0.008498227
241	0x3b1ac0b6	0.00236134
242	0x9c0a1d0c	-4.569791e-22
243	0x3c0308a6	0.007997667
244	0x3b8d62f3	0.004314774
245	0x3b1888e0	0.0023274943
246	0x3bd46fb0	0.0064830408
247	0x3bd2e3f8	0.0064358674
248	0x3c0a9612	0.008458631
249	0xbb05dc48	-0.0020425487
250	0x0b4c000c	3.9289006e-32
251	0x3c00c051	0.007858352
252	0x3b8c0b8a	0.0042738365
253	0x3aad6c74	0.0013231174
254	0x3bd648d6	0.0065394444
255	0x3c150ebe	0.009097753

rnn.weight_hh_l0_reverse f4 [4, 4]
0	0xbda820ba	-0.08209367
1	0xbdf69653	-0.12040391
2	0xbd57ecdc	-0.05271612
3	0x3dc0bf24	0.09411457
4	0x3d9a13f5	0.07523338
5	0x3d3dd6a0	0.04634726
6	0x3d2b9dde	0.0418986
7	0xbcc79106	-0.024361145
8	0xbd036d1f	-0.032086488
9	0x3c968434	0.018373586
10	0x3bbe1832	0.005801224
11	0xbd812303	-0.06305506
12	0x3d236f3e	0.03990101
13	0xbd58aa6a	-0.052896895
14	0xbbb0f6ec	-0.005400529
15	0xbcea99ad	-0.028637731

rnn.bias_ih_l0_reverse f4 [4]
0	0xbd9cc64e	-0.07655011
1	0x3d911393	0.070838116
2	0x3c56e782	0.013116719
3	0x38ac0188	8.201884e-05

rnn.bias_hh_l0_reverse f4 [4]
0	0x3bc97411	0.0061478694
1	0x3d0a0666	0.03369751
2	0x3b544bbc	0.0032393774
3	0xbc3df21e	-0.01159337

rnn.weight_ih_l1 f4 [4, 8]
0	0x3e00aaca	0.12565151
1	0x3d891c97	0.06694906
2	0x3d45ff37	0.048339095
3	0xbb696c36	-0.0035617477
4	0x3d7d76a8	0.061880738
5	0x3da5af88	0.080901206
6	0x3e04bafa	0.12961951
7	0x3dfcac82	0.12337591
8	0xbd63f7ac	-0.05565612
9	0x3e18a351	0.1490605
10	0xbe49d5df	-0.19710492
11	0x3eb1403e	0.34619325
12	0x3e795027	0.24346982
13	0x3e881ef8	0.26586127
14	0x3e2d128b	0.16901605
15	0x3e51d873	0.20492725
16	0xbd23437f	-0.03985929
17	0xbd2f5307	-0.04280379
18	0xbe34ba41	-0.17649175
19	0xbe2faba0	-0.17155313
20	0xbeb46fc2	-0.35241514
21	0x3e0a2eb3	0.13494377
22	0xbe882759	-0.2659252
23	0xbe455766	-0.19271621
24	0xbc753a4b	-0.014967511
25	0x3ddedb7b	0.10881706
26	0xbde5b20b	-0.112155996
27	0xbdaf7da4	-0.08568886
28	0xbdf2075a	-0.118178084
29	0x3df860da	0.12127848
30	0xbe5aa39d	-0.21351476
31	0x3ec0e287	0.37672827

rnn.weight_hh_l1 f4 [4, 4]
0	0x3ba6f7c5	0.0050954544
1	0xbe3b4cc3	-0.18291001
2	0xbe344723	-0.17605262
3	0xbe3aa17c	-0.18225664
4	0xbde9b09f	-0.11410641
5	0xbc9433e0	-0.018091142
6	0x3dade87e	0.0849161
7	0x3e9faf1b	0.31188282
8	0x3df26f4f	0.11837637
9	0xbd0d4288	-0.034487277
10	0xbdec2991	-0.11531366
11	0x3e636228	0.22205412
12	0x3b87b7e2	0.0041417936
13	0xbd381ba5	-0.04494824
14	0x3d5bad37	0.053631987
15	0xbe1eae2d	-0.1549613

rnn.bias_ih_l1 f4 [4]
0	0x3c9829bf	0.018574594
1	0xbe04f36f	-0.12983488
2	0xbd0af758	-0.03392729
3	0x3e17b7be	0.14816186

rnn.bias_hh_l1 f4 [4]
0	0xbc7263d9	-0.014794313
1	0xba91736e	-0.0011097023
2	0xbd28d9f7	-0.041223492
3	0x3e644bca	0.22294536

rnn.weight_ih_l1_reverse f4 [4, 8]
0	0xbe7f2449	-0.24916185
1	0xbeb1d4d8	-0.347327
2	0xbe450e30	-0.19243693
3	0x3eb83195	0.35975328
4	0x3ea6f98b	0.3261226
5	0x3bb2663b	0.0054443157
6	0x3e92adad	0.2864813
7	0xbdcd0534	-0.10010758
8	0x3ea46e8a	0.32115585
9	0x3e331a8a	0.17490593
10	0x3e6ea72f	0.23305963
11	0xbdb8a3ad	-0.09015594
12	0xbd976527	-0.0739234
13	0xbd992537	-0.07477801
14	0xbe5967cc	-0.21231002
15	0x3ec304c7	0.38089582
16	0xbea0d239	-0.31410387
17	0x3ec17d0e	0.37790722
18	0xbe71d95b	-0.23618071
19	0xbe2c2be2	-0.16813615
20	0x3de4a4a8	0.11164218
21	0xbd96af6f	-0.0735768
22	0xbdc9086e	-0.09816061
23	0x3d95f706	0.073225066
24	0xbd413b50	-0.047175705
25	0xbebc55f5	-0.3678433
26	0xbea75983	-0.3268548
27	0xbc9cccba	-0.01914059
28	0x3d2ec0eb	0.04266445
29	0x3ceab2f6	0.028649788
30	0xbda444a3	-0.08020904
31	0xbe6b88ee	-0.23001453

rnn.weight_hh_l1_reverse f4 [4, 4]
0	0x3d404993	0.046945166
1	0xbe049c41	-0.12950231
2	0xbea7007b	-0.32617554
3	0xbcd069a8	-0.025441006
4	0xbdc8f4ff	-0.09812354
5	0x3de414eb	0.11136802
6	0xbe57ebc4	-0.21086031
7	0xbeb59f62	-0.35473162
8	0x3e04aeaf	0.12957262
9	0x3e608402	0.21925357
10	0x3e7778a1	0.2416711
11	0xbe733891	-0.23752047
12	0x3d54f418	0.0519906
13	0xbe25a12f	-0.16174768
14	0xbeb3a117	-0.3508384
15	0xbd49e57f	-0.04929113

rnn.bias_ih_l1_reverse f4 [4]
0	0xbe81ee82	-0.2537728
1	0xbd9b507a	-0.07583709
2	0x3e984055	0.2973658
3	0x3e51b372	0.20478609

rnn.bias_hh_l1_reverse f4 [4]
0	0xbe59a481	-0.2125416
1	0xbe230254	-0.15918857
2	0xbea24477	-0.3169286
3	0x3e88b255	0.26698557

rnn.weight_ih_l2 f4 [4, 8]
0	0xbd3bfecd	-0.045897294
1	0x3e14f266	0.14545593
2	0x3e827b82	0.25484854
3	0x3dd7c004	0.10534671
4	0x3ed6afa0	0.41930866
5	0xbee5ba8f	-0.44868895
6	0x3e9ba269	0.30397347
7	0x3e4f65fd	0.20253749
8	0x3e5e44e2	0.21705964
9	0x3e235820	0.15951586
10	0xbd6def31	-0.05808944
11	0x3e428ddd	0.18999429
12	0xbeb9dfe7	-0.36303636
13	0xbe975c53	-0.29562625
14	0xbde3a167	-0.111147694
15	0xbd339cf5	-0.043850858
16	0x3ccbf57d	0.024897331
17	0xbdd5f328	-0.10446769
18	0xbe544c08	-0.20732129
19	0xbd97351c	-0.07383177
20	0x3e9e8892	0.3096357
21	0x3e85ed73	0.26157722
22	0x3ddcb429	0.1077655
23	0xbe02d291	-0.12775637
24	0x3d25a057	0.040436115
25	0x3eb074fe	0.34464258
26	0xbdb1fc4c	-0.086907
27	0x3e4306a5	0.19045503
28	0xbe855ed4	-0.2604891
29	0x3e242628	0.1603018
30	0x3ea43797	0.32073662
31	0x3d65267b	0.0559449

rnn.weight_hh_l2 f4 [4, 4]
0	0x3e33134d	0.17487831
1	0x3c39cd0c	0.011340391
2	0xbe997596	-0.29972523
3	0x3e4dfc6b	0.20115821
4	0xbe9796d7	-0.2960727
5	0x3e04aa6c	0.12955636
6	0xbe597e92	-0.21239689
7	0xbd4d7e93	-0.05016954
8	0x3e236914	0.15958053
9	0xbc9c96c4	-0.01911486
10	0xbe70ba02	-0.23508456
11	0xbd38a814	-0.045082167
12	0xbe916bae	-0.28402466
13	0x3e9764db	0.29569134
14	0x3ea30940	0.31842995
15	0x3e955e30	0.29173422

rnn.bias_ih_l2 f4 [4]
0	0xbe94838f	-0.2900662
1	0x3eb2afbf	0.3489971
2	0xbe7eb578	-0.24873912
3	0xbe330363	-0.1748176

rnn.bias_hh_l2 f4 [4]
0	0xbd3b239b	-0.045688253
1	0xbe570a0c	-0.20999926
2	0x3e9749dc	0.29548538
3	0x3d0277ba	0.03185246

rnn.weight_ih_l2_reverse f4 [4, 8]
0	0xbd4a1db1	-0.049344722
1	0xbea587dc	-0.32330215
2	0xbd62237a	-0.055209614
3	0x3e2ad15c	0.16681427
4	0xbda4e002	-0.080505386
5	0x3d97bfe3	0.07409646
6	0x3eb2593e	0.3483371
7	0x3e735d4b	0.23766057
8	0xbe00ce62	-0.12578729
9	0xbe16630f	-0.14686225
10	0xbea2af15	-0.31774202
11	0x3ea05da0	0.3132143
12	0x3e57ceea	0.21075025
13	0x3e3a3bcb	0.18186872
14	0xbd62a803	-0.05533601
15	0xbd88c6cf	-0.06678545
16	0x3e97223e	0.29518312
17	0xbecb62a8	-0.39723706
18	0x3ea7cdf2	0.3277431
19	0x3e0ce2f4	0.13758451
20	0x3c7e7e9f	0.0155331185
21	0x3df345ef	0.11878573
22	0xbd58f663	-0.052969348
23	0xbdceb434	-0.10092965
24	0x3e428dc8	0.18999398
25	0xbd55325a	-0.052049972
26	0xbcbd9300	-0.023141384
27	0xbd578835	-0.05262013
28	0xbe06a62a	-0.13149324
29	0x3c52ca03	0.012865546
30	0xbd6c5a37	-0.057703223
31	0xbe779de1	-0.2418132

rnn.weight_hh_l2_reverse f4 [4, 4]
0	0xbea0acdb	-0.31381878
1	0x3e3b06bb	0.18264286
2	0x3d87f765	0.06638984
3	0x3ea9f595	0.33195177
4	0xbea5b248	-0.3236258
5	0xbd4d5ef3	-0.05013938
6	0xbe8a8375	-0.2705342
7	0x3d45346e	0.048145704
8	0xbe883a5f	-0.26607034
9	0xbce71223	-0.02820689
10	0xbc6cdb7d	-0.014456627
11	0xbe91d6da	-0.2848423
12	0x3e06f8a8	0.13180792
13	0x3dd4e7e3	0.103957914
14	0x3dc71b27	0.09721976
15	0xbea7d9e1	-0.32783416

rnn.bias_ih_l2_reverse f4 [4]
0	0x3dcfbf19	0.10143871
1	0xbeb60d5b	-0.35557064
2	0x3e855d21	0.26047614
3	0xbec967fb	-0.39337143

rnn.bias_hh_l2_reverse f4 [4]
0	0xbd356b5c	-0.04429184
1	0xbc55c7fe	-0.01304817
2	0x3e2420ac	0.16028088
3	0xbe323fb3	-0.17407112

rnn.weight_ih_l3 f4 [4, 8]
0	0x3e11df16	0.14245257
1	0xbeb52407	-0.3537905
2	0xbea8c7a3	-0.3296481
3	0xbc8c1571	-0.017100068
4	0xbb9eb25f	-0.004843041
5	0xbe96fc40	-0.29489326
6	0x3d5e362e	0.05425089
7	0xbdf04b47	-0.11733108
8	0xbe86af5f	-0.26305673
9	0x3e5e1577	0.21687876
10	0xbd863aba	-0.0655417
11	0x3eb4976e	0.35271782
12	0x3ec56076	0.38550156
13	0x3e9b8c4a	0.3038047
14	0x3d3ea58a	0.04654459
15	0x3e998448	0.29983735
16	0x3e9c73e8	0.3055718
17	0xbe43ae9d	-0.19109578
18	0x3d51ad3f	0.05119061
19	0xbea4471e	-0.32085508
20	0xbe055b71	-0.13023163
21	0xbeae8577	-0.340862
22	0x3daf9baf	0.08574616
23	0xbd968a80	-0.073506355
24	0x3edb2ee2	0.42809206
25	0xbeb5d883	-0.35516748
26	0x3d7eb4ca	0.062184133
27	0x3cd74684	0.026278742
28	0xbe2c4dab	-0.16826503
29	0xbeeb297f	-0.45930097
30	0x3e740d55	0.23833211
31	0xbe78720a	-0.24262252

rnn.weight_hh_l3 f4 [4, 4]
0	0xbd92ffe3	-0.07177713
1	0xbeaf7699	-0.3427017
2	0xbc131cd0	-0.008979037
3	0xbe954e53	-0.2916132
4	0xbdbf19cd	-0.09331093
5	0xbe7a0d0e	-0.24419042
6	0xbeb64ec5	-0.3560697
7	0x3e9ca78b	0.30596575
8	0xbc8ec692	-0.01742867
9	0xbeac09e3	-0.33601293
10	0x3d135384	0.03596832
11	0x3e1546d3	0.14577799
12	0xbea9d153	-0.33167514
13	0x3db6e68e	0.089306936
14	0xbda4bd04	-0.08043864
15	0xbd545779	-0.051841233

rnn.bias_ih_l3 f4 [4]
0	0x3e591dde	0.212028
1	0x3e56150a	0.20906463
2	0x3db8edd6	0.090297386
3	0xbd9ede71	-0.07757271

rnn.bias_hh_l3 f4 [4]
0	0xbc9f7589	-0.019465225
1	0x3e47dbd2	0.19517449
2	0x3e823f4e	0.25438923
3	0x3edd98f8	0.43280768

rnn.weight_ih_l3_reverse f4 [4, 8]
0	0xbe97ab2e	-0.29622787
1	0x3db64164	0.08899191
2	0x3e179760	0.14803839
3	0x3e1dda83	0.15415387
4	0x3e28582f	0.1643989
5	0x3e185e47	0.14879714
6	0xbce35f63	-0.027755445
7	0x3ed3b1d8	0.41346622
8	0x3d22d568	0.0397543
9	0xbe86e4c5	-0.26346412
10	0x3d9497d0	0.072555184
11	0x3d0871ec	0.03331177
12	0x3ea554aa	0.32291156
13	0xbe338a10	-0.17533135
14	0xbc888f2a	-0.016669828
15	0xbe94925f	-0.29017922
16	0xbc339002	-0.010959627
17	0xbdbbaff6	-0.09164421
18	0x3e2302c2	0.15919021
19	0x3e44192c	0.19150227
20	0xbe96bc20	-0.29440403
21	0x3e112669	0.14174809
22	0xbc2b0c5c	-0.010439958
23	0xbecaf026	-0.39636344
24	0xbdd2e4d3	-0.10297551
25	0xbea960da	-0.33081704
26	0xbcfda282	-0.030961279
27	0x3e336f06	0.17522821
28	0x3d6bf69e	0.05760824
29	0x3e6f3c29	0.23362793
30	0xbea1d37b	-0.3160666
31	0x3eaf7560	0.34269238

rnn.weight_hh_l3_reverse f4 [4, 4]
0	0xbe11c01e	-0.14233443
1	0xbea95962	-0.33076006
2	0x3dd93bfa	0.10607143
3	0x3e240a3a	0.16019526
4	0xbec38209	-0.38185146
5	0x3c667b96	0.014067551
6	0xbdd0ec99	-0.102013774
7	0x3cb53685	0.022120724
8	0xbead21c4	-0.33814824
9	0x3b2a6cb7	0.002600474
10	0x3cbc248b	0.022966644
11	0xbe5730d8	-0.21014726
12	0x3e68d45c	0.22737259
13	0xbe66c12b	-0.22534625
14	0xbdfa0c4f	-0.12209379
15	0x3dc7845a	0.09742041

rnn.bias_ih_l3_reverse f4 [4]
0	0xbe2c0ad9	-0.16801013
1	0xbd434df1	-0.047681753
2	0xbe1bbb72	-0.15208223
3	0x3de2550a	0.11051376

rnn.bias_hh_l3_reverse f4 [4]
0	0x3e9cf016	0.3065192
1	0x3c9e02e6	0.019288491
2	0xbe26987d	-0.16269107
3	0xbe59bf62	-0.21264413

rnn.weight_ih_l4 f4 [4, 8]
0	0xbea360f8	-0.3190992
1	0x3ed1b351	0.4095712
2	0xbd9e3697	-0.07725256
3	0x3d13771b	0.03600226
4	0x3e2e8772	0.17043856
5	0xbe2d04d1	-0.16896369
6	0x3e41c1bc	0.1892156
7	0xbe9d5f9f	-0.30737016
8	0x3e939dab	0.2883123
9	0x3e4b324b	0.19843404
10	0x3e931359	0.287257
11	0xbed71783	-0.42010126
12	0xbe8dca34	-0.2769333
13	0xbea5167d	-0.3224372
14	0xbc4c5fbd	-0.012473998
15	0x3e3d79e8	0.18503535
16	0x3dc388b6	0.0954756
17	0xbd7e4481	-0.06207705
18	0x3e21d86b	0.15805213
19	0xbc773e17	-0.015090487
20	0x3e230bb5	0.15922435
21	0x3e936189	0.2878535
22	0x3e586cc3	0.2113524
23	0xbe37e91c	-0.17960018
24	0xbe56fd11	-0.20994975
25	0x3e960950	0.2930398
26	0x3e88c293	0.26710948
27	0xbe9b6de2	-0.3035727
28	0x3e625b00	0.22105026
29	0xbd51612c	-0.05111806
30	0x3e162c94	0.14665443
31	0xbeb0498b	-0.3443111

rnn.weight_hh_l4 f4 [4, 4]
0	0xbeac8507	-0.33695242
1	0xbed543f4	-0.41653407
2	0x3ece4d8e	0.40293545
3	0xbd8e01b0	-0.069339156
4	0xbe87b3ec	-0.26504457
5	0x3e3fe267	0.1873871
6	0xbe7a1d5f	-0.24425267
7	0x3e75f716	0.24020037
8	0xbea14961	-0.31501296
9	0xbdb68a9a	-0.08913155
10	0x3cfeb256	0.031090897
11	0xbe1d0b76	-0.15336403
12	0x3e1e1e1a	0.1544117
13	0xbea49758	-0.32146716
14	0x3ea34e4c	0.31895673
15	0x3dd9f07b	0.10641571

rnn.bias_ih_l4 f4 [4]
0	0x3e4c18c6	0.19931325
1	0xbeb2799a	-0.348584
2	0x3ec0d9e5	0.3766624
3	0xbe9ccb47	-0.30623838

rnn.bias_hh_l4 f4 [4]
0	0xbe7cc6e4	-0.24685246
1	0xbe7615e2	-0.24031785
2	0xbe37623c	-0.17908567
3	0x3ed74cf3	0.42050895

rnn.weight_ih_l4_reverse f4 [4, 8]
0	0x3c34a1dc	0.011024918
1	0x3ec491c7	0.3839247
2	0x3e914957	0.28376266
3	0x3e4ac14f	0.19800304
4	0x3cc06e21	0.023490014
5	0xbe85b2e2	-0.2611304
6	0xbdba16c3	-0.09086373
7	0xbe72cded	-0.23711367
8	0x3df7fae4	0.121084005
9	0xbd71340b	-0.058887523
10	0x3ea7c2bc	0.32765758
11	0x3ec56817	0.38555977
12	0xbdf029a1	-0.1172669
13	0xbd48425a	-0.048891403
14	0x3e3dde7f	0.18541907
15	0x3dbe1e62	0.09283139
16	0x3e1a0b0e	0.1504328
17	0x3b02e989	0.0019975624
18	0x3e9dbef5	0.3080975
19	0x3ea1f591	0.31632665
20	0x3da13c72	0.07872857
21	0x3e36d2aa	0.178538
22	0x3dd59b64	0.10430029
23	0xbe7d2412	-0.24720791
24	0x3d103d87	0.035214927
25	0x3cd86b2c	0.026418291
26	0x3e484191	0.19556262
27	0xbe9b59a0	-0.30341816
28	0xbec210d9	-0.3790348
29	0xbe41f54f	-0.18941234
30	0xbea8a399	-0.32937315
31	0x3bb951bd	0.005655496

rnn.weight_hh_l4_reverse f4 [4, 4]
0	0xbda1777f	-0.0788412
1	0xbe269c05	-0.16270454
2	0xbe93300e	-0.287476
3	0x3e879229	0.264787
4	0x3b86c33c	0.004112629
5	0x3dde3b73	0.10851183
6	0x3e1106f5	0.1416281
7	0x3e455191	0.19269396
8	0xbc1595ac	-0.009129923
9	0x3d5352fe	0.05159282
10	0xbde4608c	-0.11151227
11	0x3e5be8c6	0.21475515
12	0xbeb9cd99	-0.3628967
13	0x3ec1ce88	0.37852883
14	0xbeba840b	-0.36428866
15	0x3ebc7e21	0.3681498

rnn.bias_ih_l4_reverse f4 [4]
0	0xbda04a5e	-0.078266844
1	0x3c66f2a8	0.01409594
2	0x3cfe97c8	0.031078234
3	0x3ce7e935	0.028309444

rnn.bias_hh_l4_reverse f4 [4]
0	0xbdd96b5f	-0.106161825
1	0x3e033ba9	0.12815727
2	0xbe711c93	-0.23546056
3	0x3db55fb0	0.088561416

rnn.weight_ih_l5 f4 [4, 8]
0	0xbe0e37f5	-0.13888533
1	0xbde6a621	-0.11262155
2	0xbd9c01d6	-0.07617538
3	0x3e5f04e3	0.21779208
4	0xbdd84597	-0.10560148
5	0xbe80b97f	-0.25141522
6	0x3e974179	0.2954214
7	0xbd8af3de	-0.06784795
8	0x3cdc5d39	0.02689992
9	0x3e7e1638	0.24813163
10	0x3dfe474f	0.12415945
11	0xbee03dec	-0.43797243
12	0xbe8b208f	-0.27173278
13	0x3ed56ae6	0.4168312
14	0xbd2a220e	-0.041536383
15	0xbebe2e33	-0.37144622
16	0xbe1805aa	-0.1484591
17	0x3dd79987	0.1052733
18	0x3b2ac800	0.002605915
19	0xbeacb6d9	-0.33733252
20	0x3eb72084	0.35766995
21	0x3d989209	0.07449729
22	0xbcb05bc7	-0.021528138
23	0xbdf4604f	-0.11932432
24	0xbe87d7cf	-0.26531836
25	0xbd9c8fda	-0.07644625
26	0xbd729114	-0.05922039
27	0xbdd05b98	-0.1017372
28	0xbea5533b	-0.32290062
29	0x3d3930f1	0.04521269
30	0x3e3dcb83	0.18534665
31	0x3eb4c2d1	0.35304883

rnn.weight_hh_l5 f4 [4, 4]
0	0x3e00f829	0.12594666
1	0xbe8c555f	-0.27408883
2	0xbee11e83	-0.4396859
3	0xbe90a82f	-0.28253314
4	0xbef06d7a	-0.46958524
5	0x3d929550	0.07157385
6	0x3eadff38	0.3398378
7	0xbd054178	-0.03253314
8	0xbea191e9	-0.31556633
9	0xbe71acbb	-0.23601048
10	0xbe36cdc1	-0.17851926
11	0x3ee1079e	0.43951124
12	0xbe4bc4a9	-0.19899239
13	0x3cf8b53d	0.030359859
14	0x3cbdffbe	0.023193236
15	0x3e665287	0.22492419
