models/relu.pt (torch_old, 210816 bytes, 268 tensors)

mask_feature.cnn3D_0.weight f4 [8, 1, 1, 1, 1]
000000 96 7e 64 3f 22 f8 31 bf 30 62 9d be 40 55 9d 3e
       0.89255655 -0.69519246 -0.30738974 0.30729103
000010 68 db 02 3f 98 c5 5b 3f b2 53 36 3f 84 f1 6e bf
       0.5111604 0.8584838 0.7122146 -0.93337274

mask_feature.cnn3D_0.bias f4 [8]
000000 b0 89 62 3f d0 09 d7 3d b6 20 4a 3f 50 6c 24 3f
       0.88491344 0.104999185 0.7895616 0.6422777
000010 48 1a e3 be 98 90 04 3f 04 dd 00 bf 58 c2 74 3e
       -0.44355989 0.5178313 -0.50337243 0.23902261

mask_feature.cnn3D_1.weight f4 [16, 8, 3, 3, 3]
000000 48 46 03 bc 58 e7 d0 3c d8 06 c2 bc 71 1f 10 bd
       -0.008012362 0.025500938 -0.023684904 -0.035186235
000010 08 9b 26 bc 1a 5f 31 3d 40 3a a5 bb 84 21 69 3d
       -0.010168798 0.043303587 -0.0050423443 0.05691673
000020 04 ac 2e bc ec d9 f1 3c 50 46 99 3b 44 e8 6f 3d
       -0.010661129 0.029522859 0.0046775714 0.058571115
000030 dc 95 e9 3c d0 63 a7 bb 4a 4c 68 3d f2 fd 82 bd
       0.028513841 -0.005108334 0.05671338 -0.063960925
000040 40 db 7f 3b 20 92 18 3c c2 33 26 3d 58 68 5e 3d
       0.0039040595 0.009312183 0.040576704 0.05429873
000050 6c df 9a 3c 2c 3f 80 3c a4 2d 95 bc 44 fd 89 3c
       0.018905364 0.015655123 -0.01821024 0.0168444
000060 0c e9 8a bd e4 54 60 3d 24 d4 95 3c 4e fd 81 3d
       -0.067827314 0.054768458 0.018289633 0.06347142
000070 00 96 24 39 e4 6a 80 bd 5d f5 25 bd 08 66 23 3d
       0.00015696138 -0.06270388 -0.0405172 0.039892226
000080 80 98 77 bb 64 37 3b bd a6 75 2f 3d fb 10 7b bd
       -0.0037780106 -0.04570712 0.042836808 -0.06129549
000090 10 a8 15 bd 33 fb 3a bd 50 0f 27 bd 14 9f a0 3c
       -0.03653723 -0.04564972 -0.040786088 0.019607104
0000a0 69 66 85 bd 94 12 04 bc 62 3c 3e bd 38 2a 21 bc
       -0.06513674 -0.00806107 -0.046444304 -0.009836726
0000b0 60 16 85 bd 86 ed 20 3d 9c 38 11 3d 80 7f c3 bc
       -0.06498408 0.03928902 0.035454378 -0.023864508
0000c0 10 03 de 3b 30 78 81 bb 9e 03 53 3d a0 a7 4b 3d
       0.0067752674 -0.003951095 0.05151712 0.049720407
0000d0 52 6c 80 3d 9e e1 52 3d c8 cd 66 bc 45 df 73 bd
       0.062706605 0.051484697 -0.014087148 -0.0595391
0000e0 36 62 60 bd 71 1f 04 bd 36 f1 85 3d 24 ad 06 bc
       -0.05478116 -0.032256547 0.06540148 -0.008219991
0000f0 db 40 20 bd 7e 38 3c 3d 4c 9f 1e 3d a6 60 7b bd
       -0.03912435 0.045952313 0.038726136 -0.061371468
000100 58 7f 6e bd 94 6f 7f 3d 50 99 49 bd 80 70 1d 3d
       -0.058226913 0.06236227 -0.049218476 0.038437366
000110 c0 cc 17 3d 7a f2 bd bc 50 8d e5 3b 87 ef 4a bd
       0.0370605 -0.02318691 0.007005371 -0.049544837
000120 ca b5 09 bd 48 f5 a0 bc b4 4e d7 3c da 0a e2 bc
       -0.033620633 -0.01964821 0.026282646 -0.027593065
000130 dc 1e 9e bc 10 56 03 3d 50 d3 10 bc e3 7d 15 bd
       -0.019301824 0.032064497 -0.008839443 -0.036497008
000140 30 7e 62 3d d4 73 19 3d 16 5b 36 bd 50 35 99 3b
       0.055296123 0.037463978 -0.04452046 0.004675545
000150 54 d2 04 bd 22 52 30 bd 26 6c 08 3d 8c 09 28 3d
       -0.032427147 -0.043047078 0.033306263 0.04102473
000160 48 66 23 bc 68 d7 59 3c 72 e0 75 bd 15 c3 68 bd
       -0.009973116 0.013295986 -0.0600285 -0.05682667
000170 c8 46 6a 3c 1e 1d 85 3d 0c 55 5b 3d 4e 87 89 bd
       0.014299102 0.06499694 0.053547904 -0.067152604
000180 60 0a 68 bc a8 0a 7b 3d e0 4a 38 bc c0 6f d2 ba
       -0.01416263 0.06128946 -0.01124832 -0.0016055033
000190 fe 49 3e bd de 70 85 3d 3a c2 39 bd 1e c0 67 3d
       -0.046457283 0.06515668 -0.045351245 0.0565797
0001a0 94 a1 b5 3c cc 18 74 3d ae ce 03 3d 3c c3 64 bd
       0.022171773 0.05959396 0.032179527 -0.055850253
0001b0 41 61 01 bd f0 cf 80 bc ee 93 05 3d e0 be 4f 3d
       -0.03158689 -0.015724152 0.03261178 0.050719142
0001c0 06 3a aa bc e8 23 76 3d 39 37 00 bd 28 3b f3 3c
       -0.02077962 0.060092837 -0.031302664 0.029691294
0001d0 de ce 74 bd 54 ee c7 bc 10 17 89 bd 43 12 48 bd
       -0.059767596 -0.024405636 -0.06693852 -0.04884554
0001e0 2a fb 12 3d 72 99 69 bd 90 a8 ea 3b cc 37 83 bd
       0.03588406 -0.057031102 0.0071612075 -0.06407127
0001f0 60 6a 68 3c 94 47 dc 3c 7c 15 74 3d 6c 22 c3 3c
       0.014185518 0.0268896 0.0595908 0.023820125
000200 f4 39 72 bc 30 15 3a 3d 7c c2 69 3d a0 58 cd 3c
       -0.014784325 0.045430362 0.05707024 0.025066674
000210 d8 cc 18 3d 2c c1 2d bd a2 fc 54 3d 21 0b 2f bd
       0.03730473 -0.04242055 0.051998742 -0.042735223
000220 e0 e8 b5 3b b2 01 0f 3d ea 96 5b 3d dc 24 0d bd
       0.0055514425 0.034913726 0.05361072 -0.03445898
000230 58 7f b7 bc ec b1 70 3d aa 6d 09 bd 88 5d 70 3d
       -0.02239959 0.05876343 -0.03355185 0.05868295
000240 cc 12 35 3d 7e 5a 7e bd e7 10 3f bd da 23 48 3d
       0.04420738 -0.06209802 -0.04664698 0.048862316
000250 c0 b2 e1 bc 80 44 76 bc a4 39 af bc a0 1a c0 bc
       -0.027551055 -0.01503098 -0.02138979 -0.023450196
000260 88 cc 31 bd 80 76 2e bb f4 ff 4e 3d 7a 4a 63 bd
       -0.043407947 -0.0026620924 0.050537065 -0.05549095
000270 c0 c8 a5 3b 74 10 50 3d ce f2 4c 3d 00 00 e0 37
       0.0050593317 0.05079694 0.050036244 2.670288e-05
000280 2a 8b 24 bd 62 b8 84 bd 0e a7 47 3d b8 04 1b 3d
       -0.04017178 -0.06480481 0.0487433 0.037846297
000290 ca 25 33 3d e8 e8 8a 3c 06 7b 2d 3d b0 2b d3 3b
       0.04373721 0.016956761 0.042353652 0.006444417
0002a0 aa c6 bf bc cc 98 7e 3d ce b6 be bc f0 20 3f bc
       -0.02341016 0.062157437 -0.023280527 -0.011665568
0002b0 7a bd 9b bc 20 8b 36 3d b8 11 43 3d 0d 81 02 bd
       -0.019011248 0.044566274 0.04762432 -0.031861354
0002c0 e2 bc 8a 3d 10 6a bc 3c 20 91 a8 3b bc 9b e9 3c
       0.06774308 0.022999793 0.0051442534 0.028516643
0002d0 3f 23 0b bd c0 7c 10 3c c8 b8 81 3d 30 a7 85 3d
       -0.03396916 0.008818805 0.06334072 0.06526029
0002e0 b2 ca f8 bc ec 07 d7 3c 3c 02 de bc 70 a0 88 3d
       -0.03037009 0.026248895 -0.027100675 0.06671226
0002f0 58 51 bf bc cc cc 31 bd 26 bc 48 3d a8 d5 3d 3d
       -0.023354217 -0.0434082 0.049007557 0.046346337
000300 40 d8 7b 3b 80 29 ad bb a0 1c b4 bb b0 ff 10 bd
       0.0038428456 -0.005284488 -0.0054965764 -0.035400093
000310 f8 57 e8 3c 03 e5 51 bd 06 19 52 bd c0 51 1f 3d
       0.02836226 -0.051243793 -0.051293395 0.038896322
000320 90 34 4b 3c a0 64 4e bd 30 d8 89 3d 48 aa 3f bd
       0.012402669 -0.050388932 0.067306876 -0.046793252
000330 d5 25 0f bd b2 1b 3b bd 00 04 94 ba 90 16 6c 3c
       -0.03494819 -0.04568071 -0.0011292696 0.014409676
000340 b4 06 fb bc a4 fa 9b 3c 32 24 21 3d 48 17 2d bd
       -0.030642845 0.019040413 0.03934116 -0.04225853
000350 96 44 42 bd d2 64 8c bc 7e bb 00 3d be 81 6f bd
       -0.04742869 -0.017137919 0.031428806 -0.05847334
000360 4c 0e 80 3d 8e 61 d0 bc 99 a2 0d bd 8a 4c 0f 3d
       0.06252727 -0.025437143 -0.034578893 0.034985103
000370 80 38 fe ba 5c 01 ea 3c bc 3d 0d 3d 60 0c 51 3d
       -0.00193955 0.028565101 0.034482703 0.051037192
000380 76 17 1a 3d dc cd 6d 3d b8 c6 3a 3d 40 b2 e2 3a
       0.03762003 0.05805765 0.04559967 0.0017295554
000390 5c f7 48 3d bc 89 f7 bc 4a 1d 92 bc 3a c7 2c 3d
       0.049064025 -0.030217044 -0.017836232 0.042182185
0003a0 68 a1 7f 3c 18 59 17 3d 50 e3 d6 3c 88 4d 28 bd
       0.015602447 0.0369502 0.026231438 -0.041089565
0003b0 44 c3 81 bc 78 37 ac bc 0c fd fa bc 19 3e 70 bd
       -0.01584018 -0.021022543 -0.03063824 -0.05865297
0003c0 d0 9c 82 bc b4 73 22 bd 0a 31 49 bd 5c 07 91 bc
       -0.015943915 -0.039661124 -0.049119033 -0.017703705
0003d0 76 d2 21 3d 6c 49 57 bc 8c 10 ec 3c 48 88 96 3c
       0.03950735 -0.013140064 0.028816484 0.01837553
0003e0 f0 5f d9 bc 1a e0 4a bd 14 cd d1 3c 68 47 0b 3c
       -0.026535004 -0.049530126 0.025610484 0.008500911
0003f0 70 0c b0 bb a8 fd da 3c 4e 3d 2b bd 58 15 8a 3d
       -0.0053725764 0.02673228 -0.04180651 0.06742352

mask_feature.cnn3D_1.bias f4 [16]
000000 90 c1 de bb f0 6d 9c bb 34 9a 5a bc 20 eb 30 bb
       -0.006797977 -0.0047738478 -0.013342429 -0.0026995614
000010 04 f1 e8 3c e6 f8 4c 3d 48 8d f0 3c d0 55 29 bc
       0.028435238 0.050042056 0.029364243 -0.010335401
000020 1a 88 83 bd 1c fa 72 bc 90 d6 78 bc ce 21 4c 3d
       -0.06422444 -0.0148301385 -0.015187874 0.049836926
000030 c8 a7 37 bd 16 f0 87 3d 92 b6 41 bd 00 58 37 bd
       -0.044837743 0.0663759 -0.047293253 -0.044761658

mask_feature.cnn3D_2.weight f4 [8, 16, 1, 1, 1]
000000 32 df 61 be 1a b8 09 be e4 7a 89 3d 62 19 26 be
       -0.22057799 -0.13449135 0.06712893 -0.1622062
000010 b0 ae 48 3d 42 da 07 be e0 83 ff 3c 86 4b 0e be
       0.04899472 -0.13266852 0.031190813 -0.13895997
000020 48 ec 41 3d a0 a2 c3 bd b0 57 ac bc 9c ea e2 bd
       0.047344476 -0.09552503 -0.021037906 -0.110799044
000030 c0 e8 f5 bb 60 7d f4 bd a0 91 85 bd bc ad 82 3d
       -0.0075045526 -0.11937976 -0.065219164 0.063807935
000040 f0 3d 6d be b8 0e 47 3e 10 e7 f6 3d 30 ed 4e be
       -0.23168159 0.19439209 0.120557904 -0.20207667
000050 d0 2b 95 3d 78 28 89 bd e0 69 23 bc 60 16 93 bc
       0.07283747 -0.06697172 -0.009973973 -0.017955005
000060 6a 71 20 be a4 43 5b 3e 3c 8c 85 3d 00 87 67 bb
       -0.15668264 0.21412522 0.06520888 -0.003532827
000070 4a 25 1a 3e 50 ef cb bd 78 db e1 bd 38 93 68 be
       0.15053287 -0.099577546 -0.110281885 -0.2271241
000080 34 c0 2a be f8 a3 90 3d 38 9a fc bd 4a 31 4e 3e
       -0.16674882 0.070625246 -0.123341024 0.2013599
000090 9c 0e 5e 3e c4 f4 b3 bd d8 3c 7e be d0 5a 01 be
       0.2168526 -0.0878692 -0.24827898 -0.12632298
0000a0 ac 9b b8 3d 38 ba 7c 3d 8a 6b 7f be 04 43 40 3e
       0.09014067 0.06170103 -0.24943367 0.18775564
0000b0 74 66 c6 bd 14 74 2a 3e 50 12 a8 bd 42 c1 00 be
       -0.0968751 0.16645843 -0.08206618 -0.12573722
0000c0 68 1c a8 3d 74 46 97 3d 2e 95 0d be 40 9b 9d 3d
       0.08208543 0.07386485 -0.13826439 0.07695627
0000d0 e0 7a 36 3c 52 d9 41 3e fe 72 02 3e f8 91 a8 3d
       0.011137694 0.18930557 0.12739179 0.08230966
0000e0 80 f4 4a 3e 12 e3 5c 3e 68 a1 59 be 6c 9f f0 bd
       0.19819832 0.21570995 -0.21252978 -0.11749157
0000f0 4e 6d 4e be 30 69 e9 bd b8 ed 2e 3d 00 da 50 3d
       -0.20158884 -0.11397016 0.042707175 0.05098915
000100 48 46 2e be 06 a0 50 be c0 32 92 bd 28 9f 6a 3e
       -0.17018998 -0.20373544 -0.07138586 0.22912276
000110 02 9a 26 3e 80 e0 a8 3b ea a3 41 3e 8a 4e 23 be
       0.16269687 0.0051537156 0.18910185 -0.15947929
000120 c0 11 ba bd 98 e3 1f be 08 39 14 3e 30 2b 08 3d
       -0.09085417 -0.15614164 0.1447488 0.03324431
000130 10 7a 6a 3d 0c 57 19 3e 98 57 50 3d fa ff 49 be
       0.057245314 0.14974612 0.050864786 -0.19726554
000140 b0 64 4d bd 1c 3e 7d be bc 69 d7 bd 28 1b 19 be
       -0.05014485 -0.24730724 -0.10518214 -0.14951766
000150 98 9b ae bd dc 66 76 be 30 bf 1d 3d a6 2d 14 3e
       -0.08525771 -0.24062675 0.03851241 0.14470538
000160 90 a1 4b be b4 61 62 be 78 a4 56 bd a4 75 d1 3d
       -0.1988585 -0.22107583 -0.052402943 0.10227516
000170 f0 02 53 bd f8 e0 56 be 8c 2f 75 be 50 50 ae bc
       -0.051516473 -0.20984256 -0.23943919 -0.02127853
000180 9c b3 47 3e 24 d4 82 3d c0 d8 05 3c c2 77 44 be
       0.1950211 0.06388119 0.008169353 -0.19186309
000190 50 79 f9 3d f8 cb 13 bd 94 51 7e 3e 30 be 39 3d
       0.12181342 -0.03608319 0.24835807 0.045347393
0001a0 2c 42 9a 3d 90 df b9 bd a8 03 42 be 96 7e 52 be
       0.075321525 -0.09075844 -0.18946707 -0.20556101
0001b0 4c ea 50 be 2a f6 7a be d2 7b 5e 3e 76 ef 3f be
       -0.20401877 -0.24507967 0.21726921 -0.18743691
0001c0 1a 3d 35 be 50 48 4c 3d 10 be 7a 3d 36 8e 1c 3e
       -0.1769909 0.04987365 0.061216414 0.15288624
0001d0 ac 73 d7 bd 18 fb d9 bd 1c e6 a7 bd a8 24 19 3d
       -0.105201095 -0.106435955 -0.08198187 0.037388474
0001e0 3a cd 29 be 8c d8 8a bd 2c d8 e2 bd 4e 45 56 be
       -0.16582194 -0.06779584 -0.11076388 -0.20924875
0001f0 80 03 8c 3b fe c3 3a be e0 fa 80 3c 50 95 f3 3c
       0.004272878 -0.18238828 0.015744627 0.029734284

mask_feature.cnn3D_2.bias f4 [8]
000000 b0 9a fe 3c 58 b1 56 3d f0 e0 45 be ea 94 77 3e
       0.03107962 0.052415222 -0.19324088 0.241779
000010 80 13 75 3b 9c 22 a8 bd 30 1a 6b 3d c0 0d dd 3d
       0.0037395656 -0.08209726 0.05739802 0.10793638

frame_features.cnn3D_0.weight f4 [8, 1, 1, 1, 1]
000000 78 00 34 3f fa 37 3e be 36 f9 8e be bd 95 ad bd
       0.70313215 -0.18576041 -0.27924508 -0.08475826
000010 ba 62 09 3f 27 9a 54 31 9d 92 88 3e 45 b8 2a bd
       0.5366627 3.0937686e-09 0.26674357 -0.04167964

frame_features.cnn3D_0.bias f4 [8]
000000 09 d8 ac 3e c2 26 ea be 69 42 fe 39 67 04 14 3f
       0.33758572 -0.45732695 0.00048496135 0.5781922
000010 59 54 91 bd 13 0b ab 3e d4 4d 9d 3e 4d 6a 2e 3f
       -0.07096166 0.33406886 0.3072344 0.6813095

frame_features.cnn3D_1.weight f4 [16, 8, 3, 3, 3]
000000 ae 5e df 2a c2 b8 3d ad 20 75 b1 b2 f7 81 cd ad
       3.9678455e-13 -1.0784431e-11 -2.0658774e-08 -2.3363518e-11
000010 c4 9f 88 2a 10 c4 a5 2e cd 9c 91 aa bf d2 b5 29
       2.4269313e-13 7.538159e-11 -2.5865977e-13 8.074573e-14
000020 a4 fb b6 ad 65 eb 33 ac 1a 03 9e a9 0b 51 e2 b1
       -2.0802755e-11 -2.55681e-12 -7.0171476e-14 -6.586679e-09
000030 d0 f2 06 ac 38 15 bf b0 23 cd 1a ac ff 53 8e aa
       -1.9177333e-12 -1.390311e-09 -2.199859e-12 -2.528255e-13
000040 43 26 ed 28 5d 17 9e 32 82 b4 93 aa 2c 5a 9e aa
       2.6328879e-14 1.8404245e-08 -2.6237698e-13 -2.8129007e-13
000050 63 5c 37 a9 c7 81 ea aa 22 10 99 29 d8 4d e5 2a
       -4.0714295e-14 -4.16568e-13 6.7973635e-14 4.0732587e-13
000060 73 c6 d1 30 77 83 cb af 5d 3e 83 2b 92 c0 39 2c
       1.5263154e-09 -3.7018896e-10 9.325419e-13 2.639698e-12
000070 fb 18 d9 ad 67 c5 21 2a 00 72 a6 ad 8f 88 87 29
       -2.4681137e-11 1.436816e-13 -1.8922641e-11 6.0188935e-14
000080 1c 1a a2 32 4b d6 6d af 43 f1 fd b2 7e 95 ae b2
       1.8871155e-08 -2.1631157e-10 -2.956279e-08 -2.0324247e-08
000090 66 b5 d7 32 72 59 0d ac 05 89 c2 2d 00 66 00 b3
       2.5111785e-08 -2.0086957e-12 2.2116095e-11 -2.989509e-08
0000a0 10 92 79 2a ab 83 18 32 5a 1d cf 32 f2 6e 79 2a
       2.2166318e-13 8.877502e-09 2.411132e-08 2.2154135e-13
0000b0 7b 30 b5 2a 78 53 a0 ad 53 59 0f 32 9f c9 40 b0
       3.21857e-13 -1.8226962e-11 8.3440055e-09 -7.0135714e-10
0000c0 c0 90 64 2a 4f 7d 03 30 11 ac 00 b2 f2 3f cd a9
       2.0300688e-13 4.7835597e-10 -7.489704e-09 -9.1149215e-14
0000d0 4a 38 04 b0 4f 80 0a ac e9 c0 1a b1 2a 5f f0 27
       -4.810131e-10 -1.9682205e-12 -2.2519606e-09 6.671656e-15
0000e0 6b 8f 79 32 39 f1 a6 28 3c bd a0 a8 2a ba 10 ab
       1.4526317e-08 1.8534316e-14 -1.7845636e-14 -5.141743e-13
0000f0 dc 71 fc b2 02 44 f4 32 00 53 76 29 3c 70 59 32
       -2.9388438e-08 2.8436265e-08 5.4694964e-14 1.2656582e-08
000100 8e a6 0c b0 87 e7 c2 2a 16 53 af 2d 08 d8 dc 31
       -5.116839e-10 3.4621977e-13 1.9932094e-11 6.4274026e-09
000110 8c 57 9b ad 83 49 c9 30 ff c9 b2 28 32 ce 0f b0
       -1.7660338e-11 1.4645568e-09 1.9849572e-14 -5.231612e-10
000120 8e 19 25 33 07 87 4c b4 38 5e d8 b3 fc 3c f1 2b
       3.8440298e-08 -1.9048103e-07 -1.0075422e-07 1.7141006e-12
000130 b6 a6 30 2d f8 9c 81 a9 d3 99 0a 2c 84 31 d8 32
       1.0041459e-11 -5.7559805e-14 1.969637e-12 2.5168227e-08
000140 94 be db b2 87 d1 c6 af ff fb 97 2f 8a ad 9e ad
       -2.558162e-08 -3.6164868e-10 2.7645794e-10 -1.8039587e-11
000150 bd ea 52 2c 31 0c 91 ab f8 ee b6 2a 8b 32 94 af
       2.99731e-12 -1.0306253e-12 3.2495512e-13 -2.6956956e-10
000160 d4 30 ef af f6 6b 05 b2 80 15 e6 2a 18 2b 00 b3
       -4.350854e-10 -7.766166e-09 4.0871126e-13 -2.9841516e-08
000170 d3 26 fd b3 ce f2 d6 b1 78 38 3b ac 18 8f 87 ad
       -1.1788293e-07 -6.2558234e-09 -2.6605645e-12 -1.541127e-11
000180 ac 88 6a ac 05 6d 2f ac 40 6e e8 2f dc b3 29 33
       -3.3329268e-12 -2.4929514e-12 4.2278891e-10 3.951196e-08
000190 19 7c 24 2f 34 d7 8d aa 9d f3 64 aa f7 a5 94 32
       1.4959801e-10 -2.5195959e-13 -2.0334988e-13 1.730494e-08
0001a0 db c9 80 af de 4c 82 aa 69 04 c3 b2 c9 de bf 2a
       -2.342649e-10 -2.3145976e-13 -2.2702993e-08 3.4083004e-13
0001b0 e3 08 bf 2d 08 d2 9a ad d8 5f 86 2f 28 68 c3 a9
       2.1718133e-11 -1.7601046e-11 2.444256e-10 -8.677808e-14
0001c0 4f aa ca 32 12 67 80 2f a6 c4 f2 31 71 05 a2 b2
       2.3593342e-08 2.33563e-10 7.0654833e-09 -1.8861757e-08
0001d0 f0 25 2c 32 74 92 db 2d c1 7c f4 2b 71 49 41 aa
       1.0020344e-08 2.4962456e-11 1.7371869e-12 -1.7167324e-13
0001e0 73 ff f1 2c 16 57 a2 2f e9 f4 64 29 66 61 a6 2a
       6.8779925e-12 2.9529507e-10 5.0838596e-14 2.9555107e-13
0001f0 c6 ed 9a ad 7f dc 1d 33 ff 66 db a9 9e bb 3e a9
       -1.7613366e-11 3.675495e-08 -9.743421e-14 -4.2351207e-14
000200 48 c8 1e 31 d5 26 af a9 19 7e 76 2f 00 3e d5 31
       2.3105873e-09 -7.7782975e-14 2.2418369e-10 6.2061645e-09
000210 e9 12 3c 2b 93 67 95 34 c5 fe fb 2f 5a 5a 14 b0
       6.681726e-13 2.7828773e-07 4.583766e-10 -5.3970484e-10
000220 75 d8 75 b0 71 e8 33 ac 45 0e 5b 2d b4 40 11 2c
       -8.9438085e-10 -2.556646e-12 1.2451877e-11 2.0641657e-12
000230 5d c8 00 b0 a3 40 d2 b2 4f 08 1e ae 44 e0 3e aa
       -4.685086e-10 -2.4476611e-08 -3.593242e-11 -1.6953198e-13
000240 7e 25 bb 32 16 a2 59 31 96 93 3c 2a fa 5d 4d 30
       2.1786715e-08 3.1669791e-09 1.6748958e-13 7.4712114e-10
000250 6c 21 23 af f7 89 02 b1 76 0e f7 ab 52 e2 00 b3
       -1.4836637e-10 -1.8995914e-09 -1.7554419e-12 -3.000816e-08
000260 79 ee 80 b2 dd 49 f2 2c 23 3d 20 b2 ae 6c 81 31
       -1.5009606e-08 6.886254e-12 -9.327127e-09 3.7667496e-09
000270 13 bc 43 ac fc da 00 33 c4 ec 8c ae 82 65 c9 af
       -2.7815569e-12 3.0001488e-08 -6.408521e-11 -3.6633813e-10
000280 ca c4 ce 2d 76 c9 b6 a9 1e 11 07 b1 74 10 94 b2
       2.350688e-11 -8.1173715e-14 -1.9654816e-09 -1.723695e-08
000290 26 4b 29 aa 68 b6 eb 28 2c d0 fa b2 7e 57 ae a8
       -1.5036288e-13 2.6169347e-14 -2.9198496e-08 -1.9355824e-14
0002a0 f7 60 d8 29 0c 9b 75 aa 24 61 a0 28 a2 79 d3 ab
       9.6091477e-14 -2.1814164e-13 1.7805696e-14 -1.5026212e-12
0002b0 ca df 12 aa 33 91 eb 2f 44 5f 62 34 1a 85 8e 33
       -1.3045047e-13 4.284942e-10 2.1082548e-07 6.636601e-08
0002c0 82 49 f6 32 60 da 88 31 da 3a 01 33 52 12 d1 b1
       2.8671597e-08 3.9829473e-09 3.0088678e-08 -6.0847833e-09
0002d0 90 49 24 34 de b5 2f aa ec e2 4c aa 64 0e cf b2
       1.5300452e-07 -1.560622e-13 -1.8197569e-13 -2.4104516e-08
0002e0 8d b2 14 b0 cc 36 ae ac 7b cf 95 2a 8e 05 b1 2b
       -5.409582e-10 -4.951461e-12 2.6611685e-13 1.2578148e-12
0002f0 6e ab 8a 32 03 7a 11 30 c3 11 20 aa e3 b8 0b 2a
       1.6143272e-08 5.292408e-10 -1.4217017e-13 1.2409826e-13
000300 0e cd b4 aa 31 e7 07 b4 1d e9 40 b2 0a b2 9b 2b
       -3.2116708e-13 -1.2656962e-07 -1.1228875e-08 1.1062828e-12
000310 c7 d7 7c a9 47 35 28 a8 0b 68 f6 32 24 fa 11 b2
       -5.6142397e-14 -9.337426e-15 2.8685482e-08 -8.496986e-09
000320 31 87 00 b3 18 7e 6e 2d 24 bb 10 30 3a ef d7 2a
       -2.992528e-08 1.3556732e-11 5.265284e-10 3.835767e-13
000330 53 ec aa 33 f7 22 dd 2b 80 49 01 b3 ad 38 f4 b3
       7.959229e-08 1.5712699e-12 -3.0102e-08 -1.1372445e-07
000340 b3 b9 ba 32 d1 48 ad a9 93 1f a9 32 5b 97 31 a9
       2.1737696e-08 -7.695375e-14 1.9688548e-08 -3.9433175e-14
000350 74 17 23 a8 86 31 af b1 5b 68 a1 aa 60 1f 48 aa
       -9.053403e-15 -5.0988005e-09 -2.8671756e-13 -1.7774454e-13
000360 52 22 55 ab 83 eb 06 ab e7 50 99 2f e9 d5 af 2d
       -7.572043e-13 -4.79332e-13 2.7888022e-10 1.9990192e-11
000370 a8 dd d3 ac 77 c2 c2 33 59 f5 34 ac e3 78 9b 32
       -6.0215895e-12 9.069202e-08 -2.5715734e-12 1.8099348e-08
000380 f6 42 f5 2a fe 7a 66 2d 26 74 84 2a 8d 4b 9d 2b
       4.3567206e-13 1.3101296e-11 2.3528504e-13 1.117649e-12
000390 6b 3a ea 2a ae 35 85 a6 5e 92 12 30 4f 24 5a 2f
       4.1607286e-13 -9.243279e-16 5.332249e-10 1.9839884e-10
0003a0 89 09 ff 32 d7 33 a1 2b cb 92 cc 29 52 40 c4 31
       2.9690243e-08 1.1454126e-12 9.0848844e-14 5.711663e-09
0003b0 0d ed 6e 32 95 5c c9 2c 40 f9 a6 b1 a2 fb 88 b1
       1.3907322e-08 5.7230423e-12 -4.8595723e-09 -3.9867283e-09
0003c0 89 2f 8c af ce 86 9a 2f dc c5 2c 2b 38 04 8a ae
       -2.5499627e-10 2.810822e-10 6.138126e-13 -6.276263e-11
0003d0 82 ec d7 aa 18 df 9a 32 c1 fd 0c 30 54 c0 90 2d
       -3.8355782e-13 1.802941e-08 5.129231e-10 1.6456315e-11
0003e0 dd ec cc aa 57 b7 79 31 8a 7f df ad a6 ce bc 2d
       -3.6402036e-13 3.6338486e-09 -2.5408804e-11 2.1464896e-11
0003f0 49 00 0d ac e2 f3 fa aa b2 8d d0 b3 8a d4 fe aa
       -2.0037463e-12 -4.457815e-13 -9.711529e-08 -4.5266942e-13

frame_features.cnn3D_1.bias f4 [16]
000000 0d 28 a8 b4 ad bd de ad c2 6d 03 b0 0c 5b ad 32
       -3.132158e-07 -2.5322711e-11 -4.78135e-10 2.0181254e-08
000010 af ac 50 ac c0 c9 08 aa 95 ac 77 ad 74 df 13 2b
       -2.9654436e-12 -1.2149223e-13 -1.4078645e-11 5.2534995e-13
000020 97 37 12 ab cf 79 e3 2a 71 89 b9 32 24 8f d4 2b
       -5.1946766e-13 4.0407822e-13 2.1599336e-08 1.5103236e-12
000030 e2 45 89 aa 63 c4 1a b2 1a 69 e4 2e d0 ec 43 2c
       -2.438458e-13 -9.008633e-09 1.03869094e-10 2.7842624e-12

frame_features.cnn3D_2.weight f4 [8, 16, 1, 1, 1]
000000 17 18 ec bb 64 c4 4e 29 a1 5b 95 b9 d0 7a 30 bb
       -0.00720502 4.591153e-14 -0.00028487763 -0.002692867
000010 c6 7d 54 ba d8 6a b8 32 d6 cb 2a 3c 48 d0 20 bd
       -0.00081059 2.1469006e-08 0.010424575 -0.039261132
000020 71 2b 58 3a 95 2e 14 3d 4d bd 26 bd d2 53 f9 3b
       0.00082462194 0.036177237 -0.040707875 0.007608869
000030 df d4 32 3d fd d9 cb ba fe c1 3a 3c 38 db fd 34
       0.04366004 -0.0015552636 0.01139879 4.7284425e-07
000040 cd 39 04 3d 87 1a 3d bb 3e c9 78 28 75 1d bb 36
       0.032281686 -0.0028854923 1.3810403e-14 5.5764635e-06
000050 78 90 86 3c cc d8 0a bc 65 a0 0e bc 73 9b 21 ac
       0.01642631 -0.00847454 -0.008705233 -2.2965768e-12
000060 51 aa 81 3c 71 07 83 b8 f3 0c cd ba c6 15 35 bd
       0.015828284 -6.247953e-05 -0.0015644118 -0.044210218
000070 3f df a5 3b 32 40 15 3c 73 fb 0c 3c 33 58 e7 bb
       0.0050620134 0.009109544 0.008604872 -0.0070600747
000080 32 e5 59 2a 81 a3 1e ba e8 a0 14 30 10 9a 43 39
       1.935299e-13 -0.00060515857 5.407075e-10 0.00018654042
000090 dc 51 24 bc 37 67 df 3b 47 22 f1 28 99 7c f4 bc
       -0.010029282 0.006817724 2.677124e-14 -0.029844569
0000a0 7b b4 6c 3c 99 a0 bc bc fc 03 97 39 00 5c 03 bc
       0.014447327 -0.023025798 0.00028803933 -0.00801754
0000b0 38 1a 4c bb c9 83 0f 30 50 ea 4e bb 1a a9 0a bb
       -0.0031143557 5.2210375e-10 -0.0031572767 -0.0021157921
0000c0 f0 8b 74 b7 cd 9c a1 bc 41 6e 7e bb a3 be 5d 3b
       -1.4576115e-05 -0.019728089 -0.003882304 0.0033835552
0000d0 20 5d 78 bc 3c f0 77 39 fd 1f 9b 3c ce 13 02 3d
       -0.0151589215 0.0002364525 0.018936152 0.03175717
0000e0 d9 d5 80 34 ae 26 a3 3c 8a ba d2 bb 21 4d ef bc
       2.3997453e-07 0.019915905 -0.0064309286 -0.029211583
0000f0 c5 03 79 bb 85 74 09 bd 74 81 f9 bc 83 74 8d 3c
       -0.0037996632 -0.033558387 -0.030457236 0.017267471
000100 a0 46 04 3c 86 90 f8 31 1a 0f dd 3c 0b cd b2 3c
       0.008073479 7.2341804e-09 0.02698474 0.021826288
000110 bc f5 f7 ba d1 05 f0 bc 99 2a 94 a9 50 37 6c 3b
       -0.0018917839 -0.029299648 -6.57991e-14 0.003604371
000120 8c c4 46 ba 8b b8 02 b1 5e 7a ce b5 69 4a 23 26
       -0.00075823884 -1.902239e-09 -1.538381e-06 5.665283e-16
000130 8e 2f a2 32 80 01 14 3d d5 fb 29 bd e8 92 8b b7
       1.8880908e-08 0.036134243 -0.04149993 -1.66385e-05
000140 e5 e4 e1 b8 1b 4b 04 27 40 0c de bb 24 dd 31 b7
       -0.00010771471 1.8359395e-15 -0.0067763627 -1.060151e-05
000150 28 fb 2b bd e7 d8 0b bd ff d6 e8 37 b3 1d 79 34
       -0.04198757 -0.0341424 2.775667e-05 2.3200737e-07
000160 8b 23 c5 2b 86 63 5b bd c1 35 d6 a8 49 98 2a bb
       1.4007557e-12 -0.05356171 -2.3782085e-14 -0.002603071
000170 1a f3 63 b2 a3 dd c5 b3 44 40 ce 29 88 f2 de bb
       -1.3268414e-08 -9.213843e-08 9.159386e-14 -0.0068038143
000180 c0 c8 54 3d b3 4b 40 3d 95 08 fb 3c f3 42 8e 3a
       0.051949263 0.046947192 0.03064374 0.0010853693
000190 7b e0 63 2c 99 2b 02 2b a6 58 b6 ad 1f 50 87 36
       3.2383252e-12 4.624578e-13 -2.0730372e-11 4.032641e-06
0001a0 81 6a d7 32 9b be de 3c 23 8b b3 2b 8c 14 10 3d
       2.5077727e-08 0.027190497 1.2757333e-12 0.035175845
0001b0 36 ab d6 3b 28 55 13 3c 23 77 85 b7 c0 e1 bc bc
       0.0065511717 0.008992471 -1.5910313e-05 -0.023056865
0001c0 b9 fa 4a bb 0e 5c c0 bb 81 75 29 3c 9e df 8b af
       -0.0030972196 -0.005870349 0.0103429565 -2.5442842e-10
0001d0 62 e4 92 3c ea 23 05 3d bb bd 7e 3a 3c 61 e9 af
       0.017931167 0.032504953 0.0009717603 -4.2451542e-10
0001e0 ff ca 2a ba 94 34 86 aa 24 cf 7b 34 53 15 24 ad
       -0.0006515234 -2.3839665e-13 2.3451554e-07 -9.327056e-12
0001f0 a0 31 62 bc 84 c2 a2 bc 91 a5 ee 38 65 f3 9a b5
       -0.013805777 -0.019868143 0.000113795635 -1.1544731e-06

frame_features.cnn3D_2.bias f4 [8]
000000 21 a6 83 3a 74 f5 a8 3a d8 e6 0b 37 e9 a1 90 3c
       0.0010044017 0.0012890534 8.338793e-06 0.01765533
000010 b4 63 ee af 25 03 bb aa 05 0b ad 3a de d6 c7 bb
       -4.336279e-10 -3.3220055e-13 0.0013202137 -0.006098612

rnn.weight_ih_l0 f4 [4, 4096]
000000 61 e8 56 3d 22 99 d7 3b a2 89 02 3b 6b 34 40 bb
       0.052467708 0.006579534 0.0019918461 -0.0029328119
000010 b0 6d 6a 3e 9b 0d db 3d c5 3b 2f 3d a8 3b 00 be
       0.22893405 0.106959544 0.04278161 -0.12522757
000020 e6 50 b0 bb 27 86 d5 af 2d 14 80 3e d7 89 7b 3d
       -0.0053807376 -3.8839795e-10 0.25015393 0.06141075
000030 2e 8c 5d 3e 4d 0c 97 bd 71 2f 92 ba d8 2b 51 bb
       0.21635506 -0.07375393 -0.0011153055 -0.0031917002
000040 ff 13 9c 3d c9 a5 55 b7 8b e2 86 bc a9 91 e3 2b
       0.076210015 -1.2734389e-05 -0.016465446 1.6169749e-12
000050 43 7c 97 32 a7 ed 8e 3c 8f 2a 78 be e7 ee 53 be
       1.7635221e-08 0.017447306 -0.24234985 -0.20696603
000060 5a 0e 3e a9 52 d5 ad bd 61 8a 0e 3e 25 b2 c7 bd
       -4.2200923e-14 -0.08487953 0.13919975 -0.09750775
000070 cc aa 95 bd 25 fe 70 bd d5 02 64 be e3 43 9a a9
       -0.073079675 -0.05883612 -0.22266705 -6.85075e-14
000080 22 29 8a be cc 4c e0 3c 08 bc e1 bd cb 59 a5 bb
       -0.26984507 0.02738037 -0.11022192 -0.0050461045
000090 ca 66 20 be d8 81 e9 3d ce f3 62 3c 88 b8 6d be
       -0.15664211 0.11401719 0.013852073 -0.23214924
0000a0 5e 66 47 be 90 38 8b 3c 08 aa ab bd 9b 1e 3a 3c
       -0.19472644 0.016994745 -0.0838204 0.011359836
0000b0 0a 18 a1 3d 51 26 44 bd 14 a2 b0 a8 af 9d 63 bd
       0.07865913 -0.047888104 -1.9610215e-14 -0.0555703
0000c0 3b 9b 59 bd f6 15 8d b9 c9 d9 fa b7 5f b2 1e 3c
       -0.053126555 -0.00026909978 -2.9903737e-05 0.009686082
0000d0 6c 33 b8 3d 1e 58 67 3e 29 51 31 3e 26 c7 19 3e
       0.08994183 0.22592208 0.17316116 0.15017375
0000e0 d9 7e 07 bc 5f 5a ad 3d bd 5e b7 ad d4 03 28 bd
       -0.008269989 0.084645025 -2.0846764e-11 -0.041019276
0000f0 6e 75 86 3e 35 3c 70 37 ec 6a f4 bd 53 2f 81 a6
       0.26261467 1.4319133e-05 -0.11934456 -8.964e-16
000100 84 68 f2 3c 18 6d 92 ba 40 06 db bc 53 14 e0 bc
       0.029590853 -0.0011171428 -0.026736379 -0.027353441
000110 b2 45 b2 b2 bc ab 17 bc d5 62 f8 3c bb ca 47 3e
       -2.0753621e-08 -0.009257253 0.030320564 0.1951093
000120 56 11 ae 3c 36 d2 07 32 99 d6 09 3d 38 97 6f be
       0.0212485 7.905831e-09 0.033651922 -0.23397529
000130 54 ee 14 be 7d 52 43 3e 2d bf 4c b2 88 f4 04 3c
       -0.1454404 0.19074436 -1.1917831e-08 0.008114941
000140 71 0e f4 b2 0b 9c e4 bc 07 df 37 be 09 8b 67 bc
       -2.8411906e-08 -0.027906438 -0.17956172 -0.01413227
000150 b6 d5 6f bd 36 f1 b8 bc ab c8 0f 3d f9 a7 fc bd
       -0.05855342 -0.022575956 0.03510348 -0.12336726
000160 bd bb 5e be 33 de 72 2f c1 ec 4f be fb 9d 2f 3e
       -0.21751304 2.2088713e-10 -0.20305158 0.17150109
000170 fa e6 da bb e9 50 66 3e 72 4f 31 bd 78 de 2e 3e
       -0.0066803666 0.22491802 -0.043288656 0.17077053
000180 dd ca 63 3c d6 00 77 3e 46 f4 be 2d be d8 60 aa
       0.013903347 0.24121413 2.1708978e-11 -1.9970394e-13
000190 ad 85 ec b6 4b 0b 4d 3e e2 cf 8f bd 91 80 a1 bd
       -7.04891e-06 0.20023839 -0.070220724 -0.0788585
0001a0 f2 f4 83 b4 3b 96 05 3e b7 b3 00 b3 31 f3 a0 b7
       -2.4578873e-07 0.1304559 -2.9965772e-08 -1.9186731e-05
0001b0 1d fe 32 be 35 f4 86 3e 3f 42 a2 3c 8a b7 70 b0
       -0.17479749 0.2635819 0.01980698 -8.7572316e-10
0001c0 c2 c6 0f b9 ac 5d 00 be cd f0 c0 bd 90 ab 4e 3e
       -0.00013711586 -0.12535733 -0.09420929 0.20182633
0001d0 13 d0 07 be 63 40 df 3d 5d d3 06 be d5 b0 d3 35
       -0.13262968 0.10900953 -0.13166566 1.577219e-06
0001e0 1e 35 7e bd e3 cc 79 3d 75 e0 00 3e 9b 5a 40 be
       -0.062062375 0.06098641 0.12585624 -0.18784563
0001f0 d4 62 f2 bb 33 19 1b be 79 b4 41 3e ed 38 89 3d
       -0.007397035 -0.15146331 0.18916501 0.06700311
000200 a4 d4 cb 32 d4 c1 0e 3e 6b 05 67 3e c4 cb 1e 3e
       2.3729008e-08 0.13941127 0.2256066 0.15507418
000210 0d df 5d be 26 47 e4 bc f3 c8 6c be b2 f6 33 3e
       -0.21667118 -0.027865957 -0.23123531 0.17574576
000220 65 71 1b be eb 76 05 bd 06 c4 2d 3e 52 59 a8 bd
       -0.15179975 -0.032584112 0.16969308 -0.082201615
000230 f0 29 1e 3e 46 74 bc bd c2 54 a7 3d d3 ac 9d 3d
       0.15445685 -0.09201865 0.08170463 0.07698979
000240 b2 e1 3b 3e c3 04 4c 29 85 0c e5 3d 8e dd 28 b9
       0.18347815 4.530123e-14 0.111840285 -0.00016104264
000250 c8 57 0b 3e f5 fe 01 3a dc e0 62 3e 23 92 cf 29
       0.13607705 0.0004958951 0.2215609 9.217997e-14
000260 3d f8 14 be 6d 6a 0f 28 50 22 6e 3d b2 74 95 af
       -0.1454782 7.961172e-15 0.05813819 -2.718586e-10
000270 07 5d 1e 3e 89 a9 37 3d e9 0e aa 3a ff c2 1b 3e
       0.15465175 0.044839416 0.0012974414 0.15211104
000280 a6 e8 54 3e c7 1b 18 3c 76 a3 f8 3b ab 96 0c bb
       0.20791873 0.009283966 0.0075878454 -0.002145211
000290 96 83 5c 3e ed 04 2f 3e 57 ed 40 bc af 81 29 3e
       0.21534571 0.17091723 -0.011775336 0.16553377
0002a0 57 7e 5c be 17 f7 45 3e 1d 85 01 34 c0 f1 08 3c
       -0.2153257 0.19332539 1.2062488e-07 0.008358419
0002b0 8f dc f4 bc 03 81 71 af 2d e9 8a bd 40 d0 85 3e
       -0.029890327 -2.1964656e-10 -0.06782756 0.26135445
0002c0 10 6f 89 3e f8 54 dc 3d 80 64 d1 3d d1 8a 7a be
       0.26842546 0.10758394 0.10224247 -0.24467017
0002d0 60 11 06 3e 5e 29 9b bc 5c 9f 19 bd 6f 3e 25 3a
       0.13092566 -0.018940624 -0.037505493 0.0006303554
0002e0 cc 5c e4 bc 0d 02 71 bc 84 67 00 be c8 bc 53 bd
       -0.02787628 -0.014709962 -0.12539488 -0.051693708
0002f0 1f f6 14 be 87 f8 74 be a9 bf ee 3d a3 92 31 be
       -0.14547013 -0.2392293 0.1165765 -0.17341094
000300 0e 4a 22 be 68 7c fe 2b a4 2a 07 3e 3f e1 fc bb
       -0.15848562 1.8082315e-12 0.1319986 -0.007717281
000310 81 6a fb bc 82 dc 51 3d cd 80 2c 2b fe dc c8 b9
       -0.030690433 0.051235683 6.128542e-13 -0.00038311625
000320 fc 17 cb 39 64 51 a7 3d 09 f0 0f be de 00 04 a9
       0.00038737047 0.08169821 -0.1405641 -2.931064e-14
000330 57 00 32 3c 77 4a 1b 2c 56 ee 70 ae b6 ad 67 bb
       0.010864339 2.2068161e-12 -5.4781367e-11 -0.0035351343
000340 65 54 38 be 61 1a 8f 33 32 10 03 b1 33 f5 e9 bc
       -0.18000944 6.663755e-08 -1.9072215e-09 -0.028559303
000350 ed 2e 95 af e9 12 23 3d 5f 5a f9 3b 6a 5c 5c bd
       -2.7136285e-10 0.039812956 0.00760965 -0.05379907
000360 23 8d 26 34 0a fa ed b9 66 1a 3c 3e fb 51 28 be
       1.55113e-07 -0.00045390456 0.18369445 -0.16437523
000370 d4 76 e5 28 1c 54 52 3e 09 d9 ed 28 a2 a4 1c bd
       2.547564e-14 0.20539898 2.640641e-14 -0.038242944
000380 49 c8 dd 3d 0d eb ba bb 79 a7 59 be 52 1f 82 3b
       0.10829217 -0.00570429 -0.21255292 0.003971019
000390 27 2a fd bd 44 13 8a be 21 02 99 bc 11 bf 8a bd
       -0.123615555 -0.26967824 -0.018677773 -0.06774724
0003a0 cd 78 7c be 4b 02 12 b7 96 e1 96 bd 97 0c bb ad
       -0.24655457 -8.702812e-06 -0.07367246 -2.126503e-11
0003b0 b3 14 d1 bd e3 27 7e be 86 4d 63 be e3 b2 b7 bc
       -0.10209026 -0.24819903 -0.22197542 -0.022424167
0003c0 6f 99 10 be 8e bc ac 3c cd 13 f8 ba 4e 40 8d 3b
       -0.1412103 0.021086004 -0.00189268 0.004310644
0003d0 f7 19 b6 39 b3 85 23 be 38 16 46 2a 87 c6 db b5
       0.0003473309 -0.15968971 1.7593641e-13 -1.6374551e-06
0003e0 35 a9 8b 3d 8a 4f 97 bd 48 f1 be 2a 3a 0f 04 ba
       0.06819383 -0.07388218 3.3918202e-13 -0.00050376693
0003f0 cc 30 06 ba 62 c1 a3 32 cf 0f 82 3d b7 5e 55 3d
       -0.00051189656 1.9063638e-08 0.063506715 0.05209228

rnn.weight_hh_l0 f4 [4, 4]
000000 d4 69 c3 ba 8e 71 84 3e ea d5 72 bb b4 fa a7 3b
       -0.0014908859 0.25867885 -0.0037053772 0.0051263217
000010 d5 78 b7 bc 40 cb 95 37 aa 65 54 37 72 99 5c 3b
       -0.022396484 1.785683e-05 1.2659855e-05 0.0033660796
000020 d1 23 0c 2f 43 8b d5 ba fb d8 d6 3b 43 3d 1c be
       1.274565e-10 -0.0016292114 0.006556628 -0.15257744
000030 d8 d3 b8 3d 23 3d 81 3d b9 e5 b8 3c 3a 29 87 3e
       0.09024781 0.06310489 0.022570478 0.2639864

rnn.bias_ih_l0 f4 [4]
000000 48 18 2e be 62 20 43 3e 5d d8 04 bd 38 1b 15 3b
       -0.1700145 0.19055322 -0.032432903 0.002275182

rnn.bias_hh_l0 f4 [4]
000000 ff ea ed b3 b3 05 9a 36 9d 37 73 bb a8 8c d0 bd
       -1.1078918e-07 4.590221e-06 -0.0037112006 -0.10183078

rnn.weight_ih_l0_reverse f4 [4, 4096]
000000 03 6e 6b 2f 03 95 76 bd c9 38 cb 3d 9e e4 62 3e
       2.141221e-10 -0.060200702 0.0992294 0.22157523
000010 4d e0 00 3c ca b0 88 3e 9d 99 b4 b7 0b 9a 27 be
       0.0078659775 0.2669738 -2.1529204e-05 -0.16367356
000020 7a 56 c2 b6 80 79 05 be 41 2f 1b 3e 1d ec d1 bd
       -5.7917177e-06 -0.1303463 0.15154745 -0.10250113
000030 6a e0 25 bc 68 5d b8 3d 25 c1 de ad ea 5a a0 a9
       -0.010124305 0.09002191 -2.5324251e-11 -7.1211984e-14
000040 d0 ae c6 2d c5 f5 de bd 7f 1c a5 bd 13 bf 70 be
       2.2587626e-11 -0.108867206 -0.08062076 -0.23510389
000050 e9 66 11 3d df 85 d7 3d 8d c1 a2 3d 4a 0e 08 3a
       0.035498533 0.10523581 0.07947073 0.00051901175
000060 30 f3 3c 3e 45 77 18 3e 03 5c b9 ba 4d ac 61 3b
       0.18452144 0.14889248 -0.0014141802 0.0034434975
000070 78 e3 35 bd 0d 21 81 ab e7 23 33 3e a7 c4 05 af
       -0.044406384 -9.175175e-13 0.17494164 -1.2166144e-10
000080 89 d2 94 3d f6 de 07 be 3b a6 84 3e e3 2d 37 be
       0.07266719 -0.13268647 0.25908074 -0.17888598
000090 fc 75 3b 3c 3c 97 06 af d2 38 97 3d 7f 50 2d b8
       0.011441704 -1.2240958e-10 0.073838845 -4.1321382e-05
0000a0 46 77 74 3e 32 11 25 2f f6 b5 81 bd e9 3d e8 3c
       0.23873624 1.5012772e-10 -0.063335344 0.028349834
0000b0 b4 4b 18 be c7 a6 87 ad 58 0a 09 be 6a ff 60 3e
       -0.14872628 -1.5421787e-11 -0.13382852 0.21972433
0000c0 1c e0 09 3e 59 d1 15 be e0 2b 86 b9 16 23 2e 3e
       0.13464397 -0.14630641 -0.0002559116 0.17005572
0000d0 8c dc e3 bb d6 91 49 3d 5c d3 e1 3d 7e 7c 24 be
       -0.0069537815 0.049211346 0.11026642 -0.16063115
0000e0 70 fa d9 bd d6 81 2b be 1e de 71 be 95 cb 36 3e
       -0.1064347 -0.16748747 -0.23619887 0.17851098
0000f0 09 17 ee bd 4d fe 5c be 96 c9 fc bd 8c af 5e 3d
       -0.11625487 -0.21581383 -0.12343137 0.054366633
000100 a0 44 35 be cb 51 89 be c3 ea 02 3d 49 db 6a 3c
       -0.1770196 -0.26820216 0.031962167 0.014334508
000110 f8 8e 26 3d 37 af d4 3d 8c 9a 0c be 67 1b 05 3e
       0.04066369 0.10384982 -0.1373083 0.12998734
000120 ae b1 75 3b 69 67 50 b6 2b 41 2e bb a6 87 29 bc
       0.0037489939 -3.1054608e-06 -0.0026589136 -0.0103472825
000130 8d dc ea bb 02 e0 96 3c 51 0d 75 3e cb 40 76 bc
       -0.007167405 0.018417362 0.23930861 -0.015030096
000140 9a 32 52 ba 77 7c 1d be 88 29 0e 3d a5 bd 03 3d
       -0.00080184045 -0.15379511 0.034707576 0.03216328
000150 85 bd 42 be f0 54 d0 b6 72 39 fd bc a5 46 34 be
       -0.19017608 -6.208771e-06 -0.030911181 -0.17605074
000160 04 28 22 bc f4 ce 13 bc e9 af de 3d bb 5d 4c 3c
       -0.009897236 -0.009021509 0.10873396 0.012473519
000170 dc e7 4f be 62 95 fd 32 97 ba d6 3c 6f 7d d3 3c
       -0.20303291 2.9521008e-08 0.02621202 0.025816647
000180 3a 86 1c 3e 22 c9 13 3e 6c 5d e3 bd 01 4c b1 bd
       0.15285578 0.14432195 -0.11101803 -0.08657075
000190 aa e4 77 29 2a 03 2d b8 c1 d6 80 3c be cd c1 3b
       5.5043352e-14 -4.124936e-05 0.015727403 0.005914419
0001a0 74 b5 d6 bd df 5a 1d be 95 98 54 bd eb 9b 16 3d
       -0.10483828 -0.15366696 -0.051903326 0.03676979
0001b0 5f 69 ca 3d 27 ee 7e 3d e1 49 88 3e b5 d2 96 bd
       0.09883379 0.06223884 0.26618865 -0.07364408
0001c0 ec 63 d9 3b a5 ac e1 bd 17 5a 21 3b 23 c8 04 ab
       0.006634226 -0.110192575 0.0024620348 -4.7173566e-13
0001d0 c7 7e 10 ba 2c 6d 0b ba 72 4d 80 3e 52 05 82 bd
       -0.00055120554 -0.0005318697 0.25059086 -0.06348671
0001e0 4b 2e 97 3c c1 1b 93 bd 7f b7 ca 29 56 70 ec bd
       0.018454691 -0.07183028 9.0024335e-14 -0.11544864
0001f0 19 1c 0b be 4e 9e d2 3d 07 d3 51 3e b4 58 dd a8
       -0.13584937 0.102841005 0.20490657 -2.4574398e-14
000200 ba 75 77 3e c2 0d 2d 3b c1 62 14 bd 01 6f 34 3e
       0.24166003 0.0026405905 -0.03622699 0.1762047
000210 4d 30 7e 3e 4d 57 f2 3d 2d b6 30 3e 2e 9d 30 3e
       0.24823113 0.118330576 0.17256995 0.1724746
000220 e2 b9 16 3d aa 83 e5 3d eb 4d c0 bd 24 06 90 26
       0.036798365 0.112067536 -0.09389862 9.993672e-16
000230 23 dc c2 3d de 3f 82 33 ff d7 bd 3d f6 36 0a bc
       0.09514644 6.065214e-08 0.092697136 -0.008435955
000240 6b 4c eb 36 3b ba 9d bd af 75 bc ae 2b a8 6f bd
       7.012442e-06 -0.07701536 -8.570155e-11 -0.058509987
000250 91 f1 4d be 4b 6e 8b 3e 57 6d 19 3e ce ad 8b be
       -0.20111682 0.27232584 0.14983116 -0.2728104
000260 9a 81 70 be 21 af 8a 3e 34 1b 0b 30 43 f1 e9 3c
       -0.23486939 0.27086738 5.0606563e-10 0.028557425
000270 16 05 29 be 17 1c d7 32 c8 ee 91 bd 88 44 8d 3d
       -0.16505846 2.5042068e-08 -0.07125622 0.06897837
000280 7f 71 51 3c 9e 27 0a 3d eb 03 70 bd 3c f2 8b ba
       0.012783407 0.03372919 -0.058597486 -0.001067705
000290 33 eb 3d 3e 76 85 c9 bd 6a 1d 79 3b 4d 83 2c be
       0.18546753 -0.09839909 0.0038011917 -0.16846962
0002a0 df f3 23 b4 8e d7 86 3e e8 6f 41 3e dd aa 96 3d
       -1.5269278e-07 0.2633633 0.18890345 0.07356808
0002b0 be e2 b7 3d 3d f0 27 b9 b4 c3 a4 bc 5f f4 bc bc
       0.089787945 -0.00016015857 -0.02011285 -0.023065744
0002c0 27 df e6 bb e4 26 d9 3c 0f 06 8b 2f dd b0 d1 27
       -0.007045645 0.026507802 2.5288258e-10 5.820091e-15
0002d0 39 ed 6c 3e d9 a1 12 be d7 09 99 37 7f e5 5e 3e
       0.23137368 -0.14319552 1.8243603e-05 0.21767233
0002e0 de 77 84 3e f9 51 e9 3d bb cb 81 be 32 fe 43 3e
       0.258727 0.11392588 -0.25350747 0.19139937
0002f0 fe 30 dc bd eb fc 53 be 2b ca 98 bc a6 7f 9d 39
       -0.10751532 -0.2070195 -0.018651089 0.0003004048
000300 c7 03 20 3e 17 4b ea bd 62 00 58 be 06 ab 56 3e
       0.15626441 -0.114401035 -0.21093896 0.20963678
000310 6b 0e 27 3d 64 58 72 2d d1 5b 8d bb 7b 98 4f be
       0.040785234 1.3775734e-11 -0.004313924 -0.2027301
000320 75 0a c9 31 5a 8d 45 be 36 52 91 bb 50 51 f8 b2
       5.8510587e-09 -0.19292203 -0.004434849 -2.8907976e-08
000330 3d 08 cc 2a 3d 0c 6c 3e 78 82 ce aa c4 61 5f be
       3.6243396e-13 0.23051544 -3.6683482e-13 -0.21814638
000340 26 9d 2e 3e 83 30 e5 bd aa d7 0b 3e a2 fd 91 bd
       0.17052135 -0.111908935 0.13656488 -0.07128455
000350 67 06 2f 3c 77 ba bf 3d 16 54 81 3e 24 f1 2a 3d
       0.010682679 0.09361737 0.25259465 0.041733876
000360 0e 21 1a 3e d2 07 7d 34 91 fc 49 b2 1f db 5a 3e
       0.15051672 2.3565306e-07 -1.1757167e-08 0.2137265
000370 b1 70 0a 3e 2e a1 5b 3e dc e5 95 bd e2 58 17 3e
       0.13519551 0.21448204 -0.07319233 0.1478
000380 34 9c 7c af c9 f4 2d 3e a8 d3 21 be 8a ba 2b 3e
       -2.2974761e-10 0.1698791 -0.15803397 0.16770378
000390 ff 5e db 38 00 66 31 3c 58 06 be 3d f9 8f 7f bd
       0.00010460428 0.010827541 0.09278554 -0.062393162
0003a0 d1 84 88 3c 76 c0 fc bd 4a 95 74 39 ba b3 8c bb
       0.016664894 -0.123413965 0.00023325268 -0.004293886
0003b0 34 d9 a1 2f d3 2e 47 bc 59 4d 08 be 2b 3d f7 ba
       2.9440061e-10 -0.01215716 -0.13310756 -0.0018862834
0003c0 7f 5c 6b be a0 63 25 bc a1 60 01 be 5f a5 2e 3b
       -0.22984503 -0.010094553 -0.12634517 0.0026648862
0003d0 3d 08 c4 3d f3 80 6c ba c0 92 64 be a6 87 bb b2
       0.09571884 -0.00090219005 -0.22321606 -2.1831351e-08
0003e0 95 c7 de 2d 9e 57 37 3c e1 c7 23 be 98 2b 7b be
       2.532711e-11 0.011190323 -0.15994217 -0.24528348
0003f0 0d 6a 3e 3a 9c 5a ce 31 96 f9 26 2c a1 7d 0a be
       0.00072637276 6.00569e-09 2.3728567e-12 -0.13524486

rnn.weight_hh_l0_reverse f4 [4, 4]
000000 b3 80 de 29 65 42 38 3c b7 cc a3 36 4f 88 46 be
       9.881106e-14 0.011246298 4.8816105e-06 -0.19387935
000010 4e 9d 2e bd 0b 41 60 3e a8 24 7d 3c a1 e8 84 3e
       -0.042630486 0.21899812 0.015450634 0.25958732
000020 c8 48 3d 3e 19 a1 2d bc af 7b 28 3e 83 73 14 b0
       0.18484795 -0.010597491 0.16453432 -5.400624e-10
000030 9a 44 52 3e 74 e6 7d 3a 92 91 54 3e 75 46 94 3d
       0.20533982 0.0009685524 0.20758656 0.07240001

rnn.bias_ih_l0_reverse f4 [4]
000000 a7 80 2b 3b 08 d9 3b 3e c9 fe 61 3b 86 b0 06 3a
       0.0026169212 0.1834451 0.003448414 0.00051379984

rnn.bias_hh_l0_reverse f4 [4]
000000 04 0c 45 be b7 21 59 b8 d0 84 22 be c5 0f 89 be
       -0.19242865 -5.176823e-05 -0.15870976 -0.26769844

rnn.weight_ih_l1 f4 [4, 8]
000000 09 fa 26 be ed 15 60 b8 a7 63 e3 bd f0 e3 50 3e
       -0.16306318 -5.342618e-05 -0.111029916 0.20399451
000010 34 54 51 3d 1b 1d 8a be 06 fc 73 be 9c 38 21 3e
       0.051105693 -0.2697533 -0.23826608 0.15744251
000020 b0 27 03 3e d5 b0 b8 bd 69 57 ac 3d 7a bb 83 3a
       0.12808108 -0.09018103 0.0841511 0.0010050379
000030 3a 6d 10 3e 77 e4 86 be 00 64 7d 3e 2e dc 36 3c
       0.14104167 -0.2634618 0.24745178 0.011160893
000040 88 7c 1d 39 a4 8b 28 3e b4 c2 14 3b 54 de f4 bd
       0.00015019078 0.16459519 0.002269906 -0.11956468
000050 95 68 20 3e 77 2e e9 3d e9 60 53 be 52 09 56 3e
       0.15664895 0.113858156 -0.20642437 0.20901993
000060 48 5b 89 3e cb 9a 53 3d 0d 73 08 39 b5 c2 82 3e
       0.26827455 0.051661294 0.0001301283 0.25539175
000070 d9 cc 92 bd dc 29 2a be 8a 10 c9 b8 0e 73 8f 2f
       -0.07167978 -0.1661753 -9.5875075e-05 2.60933e-10

rnn.weight_hh_l1 f4 [4, 4]
000000 fe 10 c0 bd 32 81 0a 32 d9 f2 8f 3d d1 c0 7e bd
       -0.09378241 8.062033e-09 0.070287414 -0.062195603
000010 cf d2 41 ba 3b 87 e7 bb 85 fd 15 3e 43 74 d0 3a
       -0.00073937787 -0.0070656813 0.14647491 0.0015903789
000020 f3 a3 58 3d 18 99 aa bb 27 ba aa b9 30 df 56 bc
       0.05289073 -0.0052062385 -0.0003256362 -0.0131147355
000030 2c c7 85 3e ba c5 36 bd 4e 64 74 be 4b 83 40 3d
       0.2612852 -0.04462216 -0.23866388 0.04700021

rnn.bias_ih_l1 f4 [4]
000000 f8 b6 84 3b 36 ba f3 b9 78 97 89 3d 94 cd 73 3b
       0.004050132 -0.0004648731 0.067183435 0.0037201392

rnn.bias_hh_l1 f4 [4]
000000 4d ed 0d 3d d8 56 9e 3a a3 e6 06 be bb a1 05 3a
       0.034650136 0.0012080325 -0.13173918 0.0005097647

rnn.weight_ih_l1_reverse f4 [4, 8]
000000 e1 cc 05 bd d3 6c 80 be aa 54 6f be b4 38 55 3d
       -0.03266609 -0.25083026 -0.2337214 0.05205603
000010 9d 46 7e be 46 ca d3 bc cf ee 80 be 9c 9e c4 bc
       -0.24831624 -0.025853287 -0.25182196 -0.024001412
000020 3f 46 14 bd be 65 2e 3c 16 66 24 3e 4e 66 5f bd
       -0.036199804 0.010644374 0.16054568 -0.054540925
000030 aa ed 88 be 4a 4c c4 3d 51 a1 0d 3e 20 46 cf bd
       -0.26743823 0.095848635 0.13831069 -0.10120797
000040 ce 97 0a ac 12 87 d6 bb b4 cc 55 be 70 1c c1 b9
       -1.9695248e-12 -0.0065468634 -0.2087887 -0.00036833016
000050 1b 00 2a be 3b 58 fc bc 18 1d 04 3e 33 6e 43 3e
       -0.16601603 -0.03080379 0.12901723 0.19085006
000060 75 51 a7 3d 2b 20 06 be c9 f1 c9 3c 60 29 86 bd
       0.081698336 -0.13098209 0.024651425 -0.065508604
000070 bb ac 39 be e8 4b 1f ba 24 07 1c bd 94 d8 7c be
       -0.18132298 -0.00060766796 -0.038092747 -0.24691993

rnn.weight_hh_l1_reverse f4 [4, 4]
000000 32 e8 82 3e 88 07 d9 3d 87 bb 9c 3c 70 48 02 3e
       0.25567776 0.105971396 0.019132389 0.12722945
000010 98 37 fb 32 24 4b c6 b6 3e 83 c3 3c 76 2a 08 3e
       2.9245527e-08 -5.9096074e-06 0.023866292 0.13297448
000020 e0 a8 37 bc 03 d5 a7 bc 96 11 d8 3c 04 d1 65 be
       -0.0112096965 -0.020487314 0.026375573 -0.22443014
000030 89 08 26 be 01 a7 c3 3d 24 03 ba 2a 00 d5 33 3b
       -0.16214193 0.09553338 3.3042416e-13 0.002744019

rnn.bias_ih_l1_reverse f4 [4]
000000 0a 6a 5f bd 74 af c9 bd 19 68 33 be 14 d8 f7 ba
       -0.054544486 -0.09847918 -0.17520179 -0.0018909001

rnn.bias_hh_l1_reverse f4 [4]
000000 a4 f6 72 be b3 47 68 be e0 66 ba 3b 9a 3d 1b bc
       -0.23726898 -0.22683601 0.005688533 -0.009475136

rnn.weight_ih_l2 f4 [4, 8]
000000 38 cd d7 ab 11 0f 13 be 53 f3 af bd d8 26 3d 3e
       -1.5333628e-12 -0.14361216 -0.08591332 0.18471849
000010 1d c7 14 30 c5 69 b0 3d 08 2f 90 a9 ae ba b8 aa
       5.4125043e-10 0.08613924 -6.403043e-14 -3.28145e-13
000020 95 ce af 39 bc 65 9b 3c 9a 2f 08 ba 94 15 b8 30
       0.00033532517 0.01896941 -0.00051950815 1.3393895e-09
000030 af ca aa 3d 9a 96 87 3e 40 49 bf 2a 90 60 4f 2a
       0.0833944 0.26482087 3.3979243e-13 1.8418795e-13
000040 9a 39 7e 3e b8 7f 35 3a b7 89 47 be c7 81 00 be
       0.24826661 0.00069236336 -0.19486128 -0.12549506
000050 93 b6 55 be eb c5 a4 3b 38 99 8d b9 95 29 a3 ba
       -0.20870428 0.0050284765 -0.00027007773 -0.0012448305
000060 9d 3c 8f 3b 3c 43 43 bd 12 1d 2c bd dc 08 02 3b
       0.0043712393 -0.04767154 -0.04201991 0.0019841706
000070 b9 d8 b2 36 29 0f a7 bc dd a8 3b 3d 37 72 66 3e
       5.330043e-06 -0.020392971 0.045815337 0.22504507

rnn.weight_hh_l2 f4 [4, 4]
000000 d5 1a fb 3c 2c c5 c9 3d a5 16 07 ac f0 ae a4 38
       0.030652443 0.09852061 -1.9197224e-12 7.852714e-05
000010 84 4d be 2a d6 9d 86 3d af 09 f5 bd 1b 0a 1a be
       3.3804567e-13 0.065730736 -0.119647376 -0.15042917
000020 3c 1f 67 3d 1a 25 b8 3c d1 ff 16 be 21 5b 71 3d
       0.05642627 0.022478629 -0.14746024 0.058924798
000030 fd 94 a6 b2 5c 75 82 ad 40 ec 5e 3e 74 00 2e 3d
       -1.9392695e-08 -1.4831407e-11 0.2176981 0.0424809

rnn.bias_ih_l2 f4 [4]
000000 ba 6a 1e 3e 07 84 29 bc f2 56 4f 2d ce 82 2d 3d
       0.154704 -0.010346419 1.17858934e-11 0.042361073

rnn.bias_hh_l2 f4 [4]
000000 f4 33 e0 bc 08 55 05 bd 21 47 7e 2d f2 ac 0d be
       -0.027368523 -0.032551795 1.4454022e-11 -0.13835505

rnn.weight_ih_l2_reverse f4 [4, 8]
000000 e1 4f 6b 3c ff 8e c7 b6 8a 40 0d 3e aa 21 59 be
       0.014362306 -5.947309e-06 0.13794151 -0.21204248
000010 23 1d 6d bd 1e 01 2b be 00 e5 2f ba 09 56 4a 3e
       -0.057889115 -0.16699645 -0.0006709844 0.19759382
000020 a3 3f 04 3e bb 24 ff 37 72 51 d3 3d 05 d7 79 a9
       0.129149 3.0415473e-05 0.10318269 -5.5475606e-14
000030 7f 76 37 b0 84 ce 03 3e 49 da 30 3e 96 1c 0b 3e
       -6.6743405e-10 0.12871748 0.17270769 0.13585123
000040 bc f6 86 b1 6b e3 ba 3d 08 a8 a6 3d 65 04 b9 3d
       -3.9279637e-09 0.09125408 0.08137518 0.09034041
000050 2a 3d 51 3e 99 db 80 be 41 34 8a be 44 36 ad a6
       0.20433488 -0.2516754 -0.26992992 -1.2018995e-15
000060 b3 13 01 bd 21 6c d6 39 bf dc 30 3c 21 5c b5 b8
       -0.031512927 0.00040897823 0.0107948175 -8.647913e-05
000070 e1 b4 8f ba da 8f c6 a9 8a 89 9f 3c a6 0f 30 3e
       -0.001096394 -8.8179206e-14 0.019474763 0.1719347

rnn.weight_hh_l2_reverse f4 [4, 4]
000000 e6 ef 6d bd 89 c3 d5 bc 56 93 da 3b 9e 10 3f ab
       -0.058090113 -0.026094215 0.006670396 -6.787989e-13
000010 21 82 5b 3b 33 40 10 be da f6 b5 a8 19 8f 5a be
       0.003349431 -0.1408699 -2.0202092e-14 -0.2134365
000020 b4 89 69 35 aa 49 2d be fc b4 fa 3d 10 76 2a bd
       8.699965e-07 -0.16922632 0.12241551 -0.0416165
000030 61 5f 8b 2c 20 2f 73 ad da e8 24 3e f0 55 bf 3d
       3.961207e-12 -1.3823415e-11 0.16104451 0.09342563

rnn.bias_ih_l2_reverse f4 [4]
000000 ae 91 34 3d d1 68 24 aa 44 62 c4 2d 09 37 3a 3c
       0.044084243 -1.4602492e-13 2.2326259e-11 0.0113656605

rnn.bias_hh_l2_reverse f4 [4]
000000 bb a5 34 bd 34 1d 9f bc 4f 4c 82 3d 30 42 6c be
       -0.044103365 -0.019423105 0.06362211 -0.23072124

rnn.weight_ih_l3 f4 [4, 8]
000000 86 1d 7e be 88 78 d5 bd b4 86 40 be 53 11 3b 2d
       -0.2481595 -0.1042338 -0.18801385 1.0633566e-11
000010 2a 9a f5 3d 3f 31 23 bd cb 2b 3d b5 33 8e 29 bd
       0.11992295 -0.039841887 -7.0471714e-07 -0.041395377
000020 60 68 c4 3a 50 b1 4a be f3 f6 17 bb c3 5d 88 be
       0.001498472 -0.19794202 -0.0023187965 -0.26634035
000030 69 fd 16 3d 4b ce 27 3e 25 d5 14 b9 39 fc 97 3c
       0.036862765 0.16387288 -0.00014193782 0.018552886
000040 94 51 7d 3e 74 2f 2e bd 51 f5 29 2c 08 69 00 ba
       0.24738151 -0.042525724 2.4152522e-12 -0.00048984634
000050 4b 29 d5 bd 17 de be b6 dc 22 01 3e 21 fd 5b 3e
       -0.10408267 -5.688296e-06 0.12610954 0.2148328
000060 bf 96 e8 b7 21 96 81 3d 5c 80 4e 3e 68 6f 5a be
       -2.7726752e-05 0.06327463 0.20166153 -0.2133156
000070 6b a6 9b 3a 54 82 52 34 f6 d2 e9 3d 26 2e 5a 3d
       0.0011875158 1.9605187e-07 0.11417191 0.053266667

rnn.weight_hh_l3 f4 [4, 4]
000000 94 48 46 3e 88 a4 73 be b2 7d eb bc 08 b8 58 3d
       0.19363624 -0.23793232 -0.02874646 0.05290988
000010 72 22 39 be 95 96 cb bd 2c 96 5d 3e bc 41 3a 3e
       -0.18079546 -0.099408306 0.21639317 0.18189138
000020 1b 5b 06 b7 64 0d 30 3e 72 05 d0 2c 17 a5 40 be
       -8.0082345e-06 0.17192608 5.91232e-12 -0.18812977
000030 74 a5 c4 bc a8 57 f4 ba f0 b4 bb 36 42 ae 95 3d
       -0.024004675 -0.0018641846 5.594098e-06 0.07308628

rnn.bias_ih_l3 f4 [4]
000000 ff ad 49 3b c0 8d 4d be e3 14 1f 30 e9 fd 67 3e
       0.0030773876 -0.20073605 5.7873545e-10 0.22655453

rnn.bias_hh_l3 f4 [4]
000000 53 a1 0a ae 46 88 57 3c ae 67 bf 3c d7 69 b0 3d
       -3.1520852e-11 0.013155049 0.023364868 0.08613937

rnn.weight_ih_l3_reverse f4 [4, 8]
000000 39 a8 86 3e 9c 5b cb 3b 04 31 cb bd 82 fa 31 3a
       0.2630022 0.006205989 -0.09921458 0.0006789343
000010 83 ff 8e ad 3b a8 13 3e 2c 06 10 3c 57 49 aa 3d
       -1.6257001e-11 0.14419644 0.008790534 0.0831477
000020 b1 d1 43 3d 68 d8 18 be 82 ae d2 bd d3 0f ea 2f
       0.0478074 -0.14926302 -0.10287191 4.2575596e-10
000030 97 7d 40 35 f9 89 aa 3d fd 86 42 3e ba 32 87 bc
       7.170833e-07 0.083270974 0.18996806 -0.01650368
000040 e4 ee 1a be 74 00 97 bd bc 8c 7c be c0 4f 4c 3a
       -0.15130192 -0.07373133 -0.24663061 0.0007793866
000050 86 ea 4d be e7 d5 38 3e 73 0d 7f be ab 55 22 3e
       -0.20108995 0.18050347 -0.24907474 0.15852992
000060 19 12 0e b5 36 49 7d be b5 5e 12 bd 90 9c c5 ae
       -5.292546e-07 -0.24734959 -0.03573485 -8.986334e-11
000070 37 45 73 be 36 07 4d 3d 04 ca 9f 32 bb 1d 3b 2d
       -0.23756872 0.050055705 1.8601902e-08 1.0636321e-11

rnn.weight_hh_l3_reverse f4 [4, 4]
000000 1f 50 d7 ad 33 2f a8 bc 9e 0a c1 bc 7e 01 75 be
       -2.4478251e-11 -0.020530319 -0.023564633 -0.2392635
000010 3e 2b 02 be 11 b3 dc b2 b7 59 53 be 86 46 b3 bd
       -0.12711808 -2.56928e-08 -0.20639692 -0.08753686
000020 ea 1d 80 bd e3 a1 01 3e 61 7e 7f a8 9a 48 2c bd
       -0.06255706 0.12659411 -1.4182748e-14 -0.042061426
000030 82 39 39 be c6 a2 36 be 1d 27 6b b5 60 6d 6e be
       -0.18088344 -0.1783553 -8.760124e-07 -0.23283911

rnn.bias_ih_l3_reverse f4 [4]
000000 b6 d7 66 3d 82 cf 90 bd dd be 57 a9 7f 4f 96 2e
       0.05635806 -0.07070829 -4.7905138e-14 6.8353316e-11

rnn.bias_hh_l3_reverse f4 [4]
000000 55 1f 05 bb 88 b4 41 bd 1f 0c 61 bc 24 7a 64 3b
       -0.0020312865 -0.04729131 -0.0137358 0.003486284

rnn.weight_ih_l4 f4 [4, 8]
000000 66 c0 61 bd 8b e0 a6 3c 5b bd e8 ac 97 3e ae ba
       -0.055115126 0.020370742 -6.6148593e-12 -0.00132938
000010 e8 cc cc b9 f1 57 99 3a bf dc 73 b9 b4 2e 88 be
       -0.0003906258 0.0011699182 -0.0002325652 -0.26598132
000020 eb a2 c4 3b d6 e0 a9 ba d0 ec 19 be 00 c3 d1 37
       0.0060008666 -0.0012960683 -0.15031743 2.5005545e-05
000030 99 e1 0e 3e 09 82 37 be 18 c4 8a 38 53 f7 13 bd
       0.13953246 -0.17920698 6.616878e-05 -0.03612454
000040 93 49 84 be 62 20 84 bd 53 b2 73 3d d9 b9 71 3d
       -0.25837383 -0.06451489 0.059496235 0.05901513
000050 86 73 81 be 74 90 b2 3d cd 6c 80 bd 15 c4 64 be
       -0.2528345 0.087189585 -0.06270752 -0.22340424
000060 cc 72 85 3e 11 91 c3 ad 8a 26 7f 3e 41 db fc 3a
       0.26064146 -2.2233356e-11 0.24917045 0.0019291417
000070 e6 96 a9 2b 91 86 bf 3c 42 ea f9 bc 22 34 82 be
       1.2050055e-12 0.023379596 -0.03050721 -0.254304
