models/ver1.pt (torch_old, 174552 bytes, 60 tensors)

mask_feature.cnn3D_0.weight f4 [8, 1, 1, 1, 1]
00000000: 307d b2be 5210 40bf b0c4 ba3e 80b9 c3bc
00000010: 541f 263f b081 4fbf 9eee 7c3f 50f0 edbd
-0.34861135 -0.750249 0.36478186 -0.023892164 0.6489155 -0.8105726 0.988016 -0.116181016

mask_feature.cnn3D_0.bias f4 [8]
00000000: 32f0 753f f0ed 5f3e 58d0 6abf 004e 833c
00000010: 4017 2b3d 5eb4 683f 68ef 29be 80c5 553d
0.96069634 0.2186811 -0.9172416 0.016028404 0.04177022 0.9090022 -0.16595232 0.052190304

mask_feature.batchNorm3D_0.weight f4 [8]
00000000: 0000 803f 0000 803f 0000 803f 0000 803f
00000010: 0000 803f 0000 803f 0000 803f 0000 803f
1.0 1.0 1.0 1.0 1.0 1.0 1.0 1.0

mask_feature.batchNorm3D_0.bias f4 [8]
00000000: 0000 0000 0000 0000 0000 0000 0000 0000
00000010: 0000 0000 0000 0000 0000 0000 0000 0000
0.0 0.0 0.0 0.0 0.0 0.0 0.0 0.0

mask_feature.batchNorm3D_0.running_mean f4 [8]
00000000: 0000 0000 0000 0000 0000 0000 0000 0000
00000010: 0000 0000 0000 0000 0000 0000 0000 0000
0.0 0.0 0.0 0.0 0.0 0.0 0.0 0.0

mask_feature.batchNorm3D_0.running_var f4 [8]
00000000: 0000 803f 0000 803f 0000 803f 0000 803f
00000010: 0000 803f 0000 803f 0000 803f 0000 803f
1.0 1.0 1.0 1.0 1.0 1.0 1.0 1.0

mask_feature.cnn3D_1.weight f4 [16, 8, 3, 3, 3]
00000000: 50ce 063d 5448 433d a0ba a93b d82d cdbb
00000010: 94d1 d63c 50f7 8dbb 8a23 74bd 10e7 203c
00000020: 1499 bf3c 80a3 1e3b 100e d23c 489a 78bd
00000030: dcb1 653d bc81 323d b4d2 eebc 22e4 683d
00000040: da3c 053d 3e49 3abd baa2 abbc f8c2 4ebd
00000050: fce1 7dbc 78a3 2abd 3c54 bb3c a88f 313c
00000060: 0cc5 0fbc 3e2f f2bc 3a34 4c3d c067 5fbd
00000070: 349b efbc f054 f93b fcd4 983c 2803 abbc
00000080: 7c9a 57bc 26fe 853d b686 eabc fbb2 19bd
00000090: 7a95 f2bc 794b 77bd 7c34 03bd 745f 67bd
000000a0: 3c24 043d a4f0 1abd bcea 37bc fe0a 5d3d
000000b0: e0a2 ae3c 0092 fa39 d845 f23c 5e60 39bd
000000c0: 8055 7b3d 6297 433d f400 5abd 945c 19bd
000000d0: f077 b0bb 5479 943c a02a a03c ffba 6dbd
000000e0: 190e 78bd a5e6 76bd 228e 173d 600d 66bd
000000f0: 7002 adbb 8e9a 003d 34cb 44bc 0023 a03c
00000100: 9fe9 03bd 00f8 62b9 9c7a 3d3d a0d7 2e3b
00000110: 55a6 3ebd 1cbd c13c 9ce9 e93c d411 39bc
00000120: 38d2 ba3c be6b f4bc 7cf1 2c3d 201a 2bbb
00000130: 62b4 3dbd 762b 033d bbbf 37bd a85a d3bb
00000140: b443 d93c 94eb 763d 3ced 5bbd b856 bd3c
00000150: 3448 173d 542b 933c 4cc1 bc3c c07d 77bc
00000160: 0ffe 64bd 0868 82bc 267a c4bc 8cc6 8d3c
00000170: 1a4d 86bd 64c8 5b3d 5d78 77bd dcdf 04bd
00000180: e873 623c a0d1 78bb 00c6 3fbd b497 473d
00000190: 7074 5fbc 849a 6d3d 7c24 583d 004c 4f3c
000001a0: 4c84 70bd 7c28 8b3d 059b 87bd 00ae 5939
000001b0: ee45 3d3d c8bd b8bc 2495 85bd c8cf 0c3d
000001c0: 9e04 f0bc 0344 4abd a66d 853d b842 05bc
000001d0: b436 873c 9d90 55bd 00ce 81bb c897 f73c
000001e0: d4aa 5b3d 6ce6 4ebd 00bf 80ba 6ad2 dcbc
000001f0: 8ad6 25bd 30af debb 7081 7e3d 1014 673d
00000200: 009a 6d3b 56ea 11bd e046 283c 2b8d 52bd
00000210: bc0d 52bd 108d e73c c8eb a83c 605f 953b
00000220: dec4 143d 70f3 86bb c429 393d 3e10 50bd
00000230: 80c8 7f3d 777d 88bd 4204 abbc 7e6a 883d
00000240: 92bb 0dbd 28e3 623d 1eb5 1a3d ac46 323d
00000250: a064 4bbd ece2 113d c89a 773c 76ca 81bc
00000260: b017 47bc 9095 3d3d 6a5b 02bd 60e7 5ebb
00000270: 882f 22bd 882e f93c c03a 81bb d614 68bd
00000280: 8231 97bc 8605 843d a23f 56bd 6884 1d3c
00000290: 7895 bebb 1c73 223d 20ed 2abb be46 20bd
000002a0: a8a5 653d 198e 2dbd 88b0 103c ae54 573d
000002b0: 00ae 75ba cc1e 7b3d e260 b2bc cfc8 4ebd
000002c0: 4042 c93b a48d 59bd 4ec0 92bc 6cac 703d
000002d0: 28ab 3abd b016 f23b 62e1 11bd b29b 42bd
000002e0: 9873 503d f56d 3cbd 5009 c13b cabc e4bc
000002f0: 90a5 163c 18db 323c 0076 cdba 348b 86bd
00000300: 749d 7abd 6490 2dbd f4ee bdbc 2086 38bd
00000310: 36b3 583d 5ef1 73bd 99d4 11bd 00d4 2bb9
00000320: cabe 0cbd beae b5bc 6e73 333d c04d 80bd
00000330: 7f8f 7ebd 30ce 6d3c 303f b13c 50d4 943c
00000340: 40b1 ae3c 189b 523d ccbd 893d b4b3 b93c
00000350: ee3a 823d 597d 68bd 581c 4e3d 18f0 ec3c
00000360: d293 523d a4fe 0dbc 0012 833d 00c4 d93c
00000370: 5cbd 963c 94dd c33c 843d 033d dbe5 82bd
00000380: a806 f73c 7019 2bbd b8f8 183c 80ce 5a3d
00000390: a4e3 773d 5dd9 5cbd 88ff d23c 9eb9 1b3d
000003a0: 1061 963c 50f8 113d 78c7 b5bb 8c5f 613d
000003b0: e6cc 8a3d 4051 e93a 36d4 e9bc 4c66 56bd
000003c0: 0087 843d 19c6 29bd 928d fcbc be0f 5cbd
000003d0: 834e 64bd 288b f7bc 088c e9bb fe86 303d
000003e0: 2464 f8bc 51a6 13bd 3cff b63c 906b 773c
000003f0: 88bd da3c 2876 703c d8a4 823d deed e2bc
0.0329116 0.0476764 0.005179718 -0.0062615685 0.026222982 -0.0043324605 -0.059604205 0.009820715
0.023388423 0.002420634 0.025641471 -0.06069401 0.056077823 0.043580756 -0.029153205 0.05685819
0.032528736 -0.045480005 -0.020951618 -0.050478905 -0.015495773 -0.041659802 0.022867315 0.010837473
-0.008775007 -0.029563542 0.049854495 -0.054542303 -0.029248811 0.0076090023 0.018656246 -0.020875528
-0.013159391 0.065426156 -0.028628688 -0.037524205 -0.029612292 -0.06037471 -0.032032475 -0.056487516
0.03226112 -0.03782715 -0.011225399 0.05396556 0.0213179 0.00047792494 0.02957432 -0.04525792
0.061360836 0.04775179 -0.053223565 -0.037441805 -0.0053853914 0.01812426 0.019551575 -0.05803966
-0.06056032 -0.060278554 0.037000783 -0.0561651 -0.0052798316 0.031397395 -0.012011338 0.01954794
-0.03220522 -0.00021645427 0.046259508 0.0026678815 -0.046545345 0.023649745 0.028553776 -0.011295754
0.022805318 -0.029836532 0.042222485 -0.00261081 -0.046314605 0.03202387 -0.044860583 -0.006450016
0.026521541 0.06028326 -0.05369304 0.02311264 0.036934093 0.017964996 0.02304139 -0.015105665
-0.05590635 -0.015918747 -0.023984026 0.017306589 -0.06557675 0.053657904 -0.06041752 -0.03244005
0.0138215795 -0.0037966743 -0.046819687 0.04872866 -0.013638601 0.058008686 0.05276917 0.012652397
-0.058719918 0.06794831 -0.066213645 0.00020759553 0.04620927 -0.022551432 -0.06522587 0.034377843
-0.029299077 -0.049381267 0.065150544 -0.008133583 0.016505577 -0.052139867 -0.0039613247 0.030223742
0.05362971 -0.050512716 -0.0009822547 -0.026955802 -0.040487804 -0.0067957863 0.06213516 0.056415617
0.0036255121 -0.03562387 0.010270804 -0.05140416 -0.05128263 0.028265506 0.020620242 0.0045584887
0.03632056 -0.0041183755 0.045205846 -0.05079674 0.06244707 -0.066645555 -0.020876054 0.06660937
-0.03460271 0.055392414 0.037770383 0.04352443 -0.04965651 0.0356168 0.015112586 -0.015843611
-0.012151644 0.046285212 -0.03182546 -0.0034012422 -0.03959611 0.030417696 -0.003943771 -0.056660496
-0.018456224 0.06446366 -0.05230678 0.009614088 -0.005816158 0.039660558 -0.002608128 -0.039129965
0.056066185 -0.042371843 0.008831151 0.05257099 -0.00093719363 0.061308667 -0.021774713 -0.050484475
0.006141931 -0.053113595 -0.017913964 0.058758184 -0.045573384 0.0073879585 -0.035615332 -0.047511764
0.05089149 -0.0460033 0.0058910027 -0.027922053 0.009194747 0.010916494 -0.0015675426 -0.0656952
-0.061185315 -0.04237403 -0.02318523 -0.045049787 0.052905284 -0.059556358 -0.03560314 -0.00016386807
-0.034361638 -0.02217805 0.043811254 -0.0626483 -0.062148567 0.014514491 0.021636575 0.018167645
0.021324754 0.05141744 0.06725654 0.022668697 0.06358896 -0.056760166 0.05032 0.02892308
0.051410504 -0.008666668 0.063999176 0.026582718 0.01840084 0.023909368 0.032041088 -0.06391498
0.030154541 -0.041772306 0.009336643 0.05341959 0.06051983 -0.05391823 0.025756612 0.038018815
0.01835683 0.0356372 -0.00554746 0.05502276 0.067773625 0.0017800704 -0.028543573 -0.05234365
0.06471062 -0.041448686 -0.030829225 -0.05372595 -0.055738937 -0.030217722 -0.0071272887 0.04309749
-0.030321188 -0.036047284 0.022338502 0.0151013285 0.026701704 0.014676608 0.06379098 -0.027701315

mask_feature.cnn3D_1.bias f4 [16]
00000000: 5cff 823c 9cb1 4abd 2c8d bf3c d414 04bc
00000010: b45a e6bc 882e c3bb 98a9 d93c 0c6f 4d3d
00000020: dcf6 af3c 1c1e 86bc c671 543d 92e4 863d
00000030: eefd 423d 8228 4fbd def6 dfbc f8f9 e03c
0.015990905 -0.049485788 0.023382746 -0.008061606 -0.028119422 -0.0059564747 0.026570126 0.05015473
0.021480016 -0.01637178 0.051866315 0.06586565 0.047605447 -0.05057574 -0.027339395 0.027462944

mask_feature.batchNorm3D_1.weight f4 [16]
00000000: 0000 803f 0000 803f 0000 803f 0000 803f
00000010: 0000 803f 0000 803f 0000 803f 0000 803f
00000020: 0000 803f 0000 803f 0000 803f 0000 803f
00000030: 0000 803f 0000 803f 0000 803f 0000 803f
1.0 1.0 1.0 1.0 1.0 1.0 1.0 1.0
1.0 1.0 1.0 1.0 1.0 1.0 1.0 1.0

mask_feature.batchNorm3D_1.bias f4 [16]
00000000: 0000 0000 0000 0000 0000 0000 0000 0000
00000010: 0000 0000 0000 0000 0000 0000 0000 0000
00000020: 0000 0000 0000 0000 0000 0000 0000 0000
00000030: 0000 0000 0000 0000 0000 0000 0000 0000
0.0 0.0 0.0 0.0 0.0 0.0 0.0 0.0
0.0 0.0 0.0 0.0 0.0 0.0 0.0 0.0

mask_feature.batchNorm3D_1.running_mean f4 [16]
00000000: 0000 0000 0000 0000 0000 0000 0000 0000
00000010: 0000 0000 0000 0000 0000 0000 0000 0000
00000020: 0000 0000 0000 0000 0000 0000 0000 0000
00000030: 0000 0000 0000 0000 0000 0000 0000 0000
0.0 0.0 0.0 0.0 0.0 0.0 0.0 0.0
0.0 0.0 0.0 0.0 0.0 0.0 0.0 0.0

mask_feature.batchNorm3D_1.running_var f4 [16]
00000000: 0000 803f 0000 803f 0000 803f 0000 803f
00000010: 0000 803f 0000 803f 0000 803f 0000 803f
00000020: 0000 803f 0000 803f 0000 803f 0000 803f
00000030: 0000 803f 0000 803f 0000 803f 0000 803f
1.0 1.0 1.0 1.0 1.0 1.0 1.0 1.0
1.0 1.0 1.0 1.0 1.0 1.0 1.0 1.0

mask_feature.cnn3D_2.weight f4 [8, 16, 1, 1, 1]
00000000: 6083 31bd 0051 233d b034 043d 68c8 6dbd
00000010: d823 5fbe e85d 853d 7a70 243e 5421 073e
00000020: 8c5d 90bd 102d 87bc 30bb be3c 9ab0 26be
00000030: 5c4f c5bd d821 ebbd c82c 993d 62c2 7ebe
00000040: 625f 4e3e 601e 0e3d 5e65 0e3e f85f 13bd
00000050: 00e3 903b d279 4f3e 2c14 b6bd ea62 7a3e
00000060: accf 6abe b405 473e 58ef 70bd 5834 3abe
00000070: 6cb4 633e 001b c6bb 28a7 a23d 2263 563e
00000080: 2867 14bd 54b0 06be e0a7 7f3d 80c5 1dbc
00000090: 70fd 993c 52ab 3fbe 7c9c 34be 90d0 a8bc
000000a0: 0045 1d3d 4451 13be 62d1 0bbe f0ae 24be
000000b0: 945d 92bd 686d 933d 8617 4b3e 50c9 b73c
000000c0: 0c31 a43d f089 463d 1c91 67be c4da a93d
000000d0: ec70 6f3e 6461 66be 464c 2bbe 5805 3a3e
000000e0: a423 9abd a01d a93c 38cd f6bd 785b c8bd
000000f0: 1c54 4bbe fe09 53be 3085 c4bd 9a9f 783e
00000100: 3ce9 9bbd 50fc 693e 109e e93d 6c1f 2cbe
00000110: beda 63be 22d1 39be 8046 373e 5cef 613e
00000120: 04ff 473e 385a fcbd 4e05 48be ac09 e43d
00000130: 5827 ddbd cace 6e3e bc0b 5dbe b001 473d
00000140: a0c1 963d 285c e83d 54a3 7bbe 00e8 18b9
00000150: 7e30 24be b036 0dbe b0f1 9abd fc7c 22be
00000160: 8099 96bb b457 963d 0a2a 0d3e 8ab8 71be
00000170: 909b 37bd 4e05 493e 00d4 d0bc f865 a4bd
00000180: e0e7 bdbc 0408 c23d 88cf 3cbd 48a1 95bd
00000190: 3007 563e a0fb c13d c00d 793d 4cd9 3ebe
000001a0: e6c8 183e 0491 e1bd c4b6 6fbe 8c74 46be
000001b0: 7254 373e 24eb 4dbe 80c1 6fbd 46d1 7fbe
000001c0: 420a 32be 348e e93d b4b3 663e 5ca5 dcbd
000001d0: b02b a8bd 3ec2 44be 00e8 2c3b 5078 d13c
000001e0: 284d 7cbd 38a8 2f3d fe14 02be b0bc b13c
000001f0: e0d0 7d3d 86f8 61be 0ee5 08be 04ab 773e
-0.04333818 0.03987217 0.03227681 -0.05805245 -0.21791017 0.06512052 0.16058531 0.13196307
-0.07049093 -0.01650098 0.023282617 -0.16278306 -0.09634277 -0.114810646 0.074792445 -0.24878839
0.20153573 0.034696937 0.13905856 -0.035980195 0.0044215918 0.20261315 -0.08890566 0.24451795
-0.22930783 0.1943577 -0.058822006 -0.1818403 0.22236794 -0.006045699 0.07942039 0.20936254
-0.03623119 -0.13153201 0.062415957 -0.009629607 0.018797606 -0.18717697 -0.17637819 -0.020607263
0.03839588 -0.14386469 -0.13654092 -0.16082358 -0.07146755 0.07198602 0.19833192 0.02243486
0.080171674 0.04847139 -0.22613949 0.08293679 0.2338292 -0.22498089 -0.16728315 0.18166101
-0.07526329 0.02064401 -0.12050861 -0.09783071 -0.19856304 -0.2060928 -0.09595716 0.24279633
-0.07612845 0.22850156 0.11407101 -0.16808861 -0.22251412 -0.18146184 0.17897987 0.22063965
0.19530874 -0.12321895 -0.19533274 0.11134657 -0.1079852 0.23321071 -0.21586508 0.048585594
0.0736115 0.113457024 -0.24574023 -0.00014582276 -0.16034123 -0.13790393 -0.075656295 -0.1586799
-0.0045959353 0.07340947 0.13785568 -0.23605552 -0.04482609 0.1963093 -0.025491714 -0.080272615
-0.023181856 0.09474185 -0.046096355 -0.073061526 0.2090118 0.09471822 0.06080413 -0.1863758
0.14920387 -0.11013988 -0.23409563 -0.19380397 0.17903307 -0.2010923 -0.058534145 -0.24982175
-0.17386726 0.11404076 0.22529489 -0.10773727 -0.08211458 -0.19214723 0.00263834 0.025570065
-0.06159702 0.042885035 -0.1270332 0.021696419 0.061966777 -0.2206746 -0.13368627 0.24186331

mask_feature.cnn3D_2.bias f4 [8]
00000000: c41d 2e3e 940e f1bd 00dc 1b3d 2c3d ab3d
00000010: 2026 be3d 2499 593e a024 8f3d b040 873d
0.17003542 -0.11770359 0.038051605 0.08361277 0.092846155 0.21249825 0.069894075 0.06604135

mask_feature.batchNorm3D_2.weight f4 [8]
00000000: 0000 803f 0000 803f 0000 803f 0000 803f
00000010: 0000 803f 0000 803f 0000 803f 0000 803f
1.0 1.0 1.0 1.0 1.0 1.0 1.0 1.0

mask_feature.batchNorm3D_2.bias f4 [8]
00000000: 0000 0000 0000 0000 0000 0000 0000 0000
00000010: 0000 0000 0000 0000 0000 0000 0000 0000
0.0 0.0 0.0 0.0 0.0 0.0 0.0 0.0

mask_feature.batchNorm3D_2.running_mean f4 [8]
00000000: 0000 0000 0000 0000 0000 0000 0000 0000
00000010: 0000 0000 0000 0000 0000 0000 0000 0000
0.0 0.0 0.0 0.0 0.0 0.0 0.0 0.0

mask_feature.batchNorm3D_2.running_var f4 [8]
00000000: 0000 803f 0000 803f 0000 803f 0000 803f
00000010: 0000 803f 0000 803f 0000 803f 0000 803f
1.0 1.0 1.0 1.0 1.0 1.0 1.0 1.0

frame_features.cnn3D_0.weight f4 [8, 1, 1, 1, 1]
00000000: 5429 e4be a746 0fbd 110a 1abe aafc fc3e
00000010: 2290 f6be 7567 9abe 6480 e7be 3e2e 003f
-0.4456278 -0.03497949 -0.15042903 0.49411517 -0.4815684 -0.30157056 -0.45215142 0.5007056

frame_features.cnn3D_0.bias f4 [8]
00000000: 6d82 143f d6ae 50be 74a6 8c3b 31c6 11bd
00000010: e3d5 d0be 77be c13e ad0b 85be 3262 32bf
0.58011514 -0.20379195 0.0042923037 -0.0355894 -0.40788183 0.37840626 -0.2598547 -0.69681084

frame_features.batchNorm3D_0.weight f4 [8]
00000000: 5651 713f b2e1 6c3f 613c 643f ec81 813f
00000010: 90e0 553f 19df 6f3f f105 6d3f 3ffb 7b3f
0.94264734 0.92531884 0.8915463 1.0117774 0.8354578 0.93699795 0.9258719 0.98430246

frame_features.batchNorm3D_0.bias f4 [8]
00000000: ec3b 07bc 9ea0 a53b 5ead 18b9 76db 6b3b
00000010: 1d2c d9bb 420f a13b 3c3c 963b 70a1 253c
-0.008254033 0.0050545475 -0.00014560434 0.0035988963 -0.006627573 0.004915149 0.004584817 0.0101092905

frame_features.batchNorm3D_0.running_mean f4 [8]
00000000: dd92 143f bd2e 51be 9e78 823b b122 0dbd
00000010: 3659 d4be fe6d c23e 2349 88be b7c6 31bf
0.58036596 -0.20427985 0.003981664 -0.034456912 -0.41474313 0.37974542 -0.266183 -0.6944384

frame_features.batchNorm3D_0.running_var f4 [8]
00000000: d5b1 8c3a 94d5 dd36 15f9 0439 56bc ac3a
00000010: d3fc a43a d352 013a 5797 913a 6940 b13a
0.001073415 6.611177e-06 0.00012681291 0.0013178687 0.0012587555 0.0004933301 0.0011107725 0.0013523224

frame_features.cnn3D_1.weight f4 [16, 8, 3, 3, 3]
00000000: bfe9 1bbd f3b2 cb3b 2bc3 f8bc 65e8 bf3c
00000010: 6a1b f93b e18c 32bd 114b 3dbd 5a7d 3fbc
00000020: 6e34 8f3c 21db 1fbb 0164 ef3c 6937 1fbd
00000030: a9bf 443c a64c 46bd 1fcc e0bb da9d 51bd
00000040: 7347 48bc a608 403d 4252 a6bb 65e7 713b
00000050: 8bc4 66bc ee21 ecbb 0b15 63bb 7b07 1c3d
00000060: 67ed 46bc 3ab8 1a3d 89c8 153d 1c48 b93c
00000070: 875f c8bc 52a7 8f3c 3a70 4c3d 5e5e 83bc
00000080: c855 81bc fe52 0abd b03a ef3c f092 26bd
00000090: 6e0b 783d 4ad4 793c 457b 86bc 60c9 1d3d
000000a0: b024 7ebb 9d27 20bd 7b86 c63c 9a6b a5bc
000000b0: 327f f9bc 3eeb 473d c034 42bc 9c5a ab3c
000000c0: 0767 13bd 9350 34bd 5de6 02bd c142 cc3c
000000d0: dcf4 bc3c 61df 553d ac56 f4bc 924f c0bc
000000e0: f5ec e5bc 8a41 36bc e4c7 b83b 94e0 20bd
000000f0: 46a5 533b 20e5 03bc 483c 9f3c b790 0b3d
00000100: 58f9 283c 6583 53bc fd16 21bd 9f60 163b
00000110: 55cd 06bd ce94 36bc f4f1 6abc acac 35bd
00000120: 8f32 1bbd 2535 98bb 4797 003d 3659 cbbb
00000130: 9e53 6fbc 1a2b c63c da8c 273a b534 073c
00000140: 3d82 0bbd db5d 613d 10b5 01bd cf23 0d3d
00000150: 6253 2abd 7462 27bd df59 873b f6b9 013d
00000160: 7222 853d 761e 8a3d 49a6 e63a d77f f83c
00000170: edee 56bd 69a9 0abc a032 d93c 0da8 ebbc
00000180: 1bf2 0a3d f295 0c3d bb8f 04bc 66a2 af3d
00000190: a792 3f3c 8d5a 0fbd d870 aabc c701 8fbd
000001a0: a43c 88bd aa33 863c 9837 2f3d 6275 6bbd
000001b0: 8dc5 903c 3083 b2bb 1818 9d3b 70c2 30bd
000001c0: 40e7 8dbc fa58 46bb ecbe ebbc 8181 2d3d
000001d0: 5f39 df3c a267 943b d684 1c3d 5a08 16bd
000001e0: 838d 013d 37fc 95ba 1658 3f3c 5091 d93c
000001f0: 37f7 0d3d 7741 48bd df81 063d 5fe0 01bb
00000200: 5582 3d3b 68d0 88bc 57b2 2c3d d338 053c
00000210: 2a12 26bd 3f42 653c 15c3 bfbc a349 2c3d
00000220: 0116 f2bc 85ba ca3c 890a 903c ce39 3fbd
00000230: 7207 123d aab7 f03c a784 64bd 765a 5fbd
00000240: 03cb 073d b2f0 113d fec5 a93b 2ce4 713c
00000250: 794e 2ebd 87dd 6ebd fb4f 373c 7195 e53c
00000260: 3432 05bd 636f e43c 4752 93bc 66bf 88bd
00000270: 7e59 66bd fad5 ab3c 7413 bcbc 7bca 34bd
00000280: 27c2 51bd 31c0 4d3c 3e43 1bbd 2c3a 823d
00000290: 0248 48bd 9222 09bd dd05 43b9 a124 453d
000002a0: f660 b7bc 0851 16bd 3ce6 273d 9c93 5a3c
000002b0: 62d3 5b3d 2dc3 333d 1b0b e5bc c49b 8ebb
000002c0: 96a5 0a3d c471 13bd 3309 3d3d 23fb 423d
000002d0: e953 18bd 1285 82bb b354 85bc bafe 86bc
000002e0: 6dd0 37bd 3cf8 0a3c ce23 5c3d f02f cbbc
000002f0: 65b7 3ebc 7b2d db3b 04f9 8d3d 70af 0c3a
00000300: 11e9 d9bc 48c6 723d 791b 643d fb86 3cbd
00000310: 672c b03c 9f88 483d 4fa3 0dbd 280d 49bd
00000320: 4fce 2fbd 79e4 283d f757 3abd c3e8 6c3d
00000330: 8898 853c 4ccf 7a3c 1b6e 533d eb46 7bbc
00000340: 8fe5 d0bc 80b5 043d 2fdf 313b 5b71 18bd
00000350: 1b15 4f3d 5366 0c3d 8e4a 72bd 9ac0 9ebc
00000360: ccad ac3a dfc1 9ebc 9ebd 583d 17b3 1fbd
00000370: 1b43 43bd 109e d7bc 3e48 4f3d df75 f73c
00000380: a06d 0e3d 9dfc 57bc e999 e23c 559a 34bc
00000390: 5bcc 9cbb 1122 d73c 22ae 1ebd 14f6 4bbd
000003a0: d15d c4bc c7f9 42bd 2b64 c0bc dda8 43bd
000003b0: a8ff 133c 2573 ba3b bb22 4b3d edcf 033d
000003c0: eb19 96bb 3c69 0bbd ab05 0b3a 6518 5c3c
000003d0: 44ab 3c3c 57ed f93c ad71 2c3b 9739 283d
000003e0: 242a a83c b1b3 7bbc 986f 1e3d 94a5 1c3d
000003f0: 9f7e 983d f358 6d3d 70f5 ec3c 4b78 8b3c
-0.038064715 0.006216401 -0.0303665 0.023426244 0.007602145 -0.043591384 -0.046214167 -0.011687601
0.017481055 -0.0024392086 0.02922249 -0.038871203 0.012008586 -0.04841294 -0.0068602706 -0.05117593
-0.012224066 0.046883248 -0.005075724 0.0036911604 -0.014084945 -0.007206193 -0.0034649994 0.03809307
-0.012141562 0.03777335 0.0365682 0.022617392 -0.024459613 0.01753584 0.049911715 -0.016036209
-0.015787974 -0.033770554 0.029202789 -0.040667474 0.060557775 0.015248368 -0.016416201 0.038522124
-0.0038779192 -0.03910028 0.024234047 -0.02019291 -0.03045616 0.04880833 -0.011853397 0.02091723
-0.035986926 -0.044022154 -0.031957973 0.024934174 0.023065977 0.052214984 -0.029826485 -0.023475442
-0.028067091 -0.011124024 0.005639063 -0.039276674 0.0032294556 -0.008050233 0.019437924 0.034073558
0.010313354 -0.012909745 -0.039328564 0.0022945774 -0.032910664 -0.011143876 -0.014339913 -0.044354126
-0.037890013 -0.004645007 0.03139427 -0.006205703 -0.014607338 0.024190474 0.0006391533 0.008252312
-0.03405975 0.05502115 -0.031666815 0.034457978 -0.041583426 -0.040865377 0.0041305865 0.031671487
0.065007105 0.06744091 0.0017597164 0.030334396 -0.05247395 -0.008463242 0.026513398 -0.028766656
0.033922296 0.034322686 -0.008090909 0.08575897 0.0116926795 -0.034998465 -0.020805761 -0.06982761
-0.06652191 0.016382057 0.042777628 -0.05748499 0.017672325 -0.0054477677 0.004794132 -0.04315418
-0.017322183 -0.0030265437 -0.028777562 0.042359833 0.027249036 0.0045289556 0.03821262 -0.03662906
0.031629097 -0.0011442964 0.011678716 0.026558548 0.03465959 -0.048890557 0.0328387 -0.0019817573
0.0028916795 -0.016700938 0.042162266 0.008131224 -0.040544666 0.013992845 -0.023408452 0.042062413
-0.029551508 0.024747143 0.017583149 -0.046685986 0.03565163 0.029384453 -0.05579057 -0.05452963
0.03315259 0.035629936 0.005181073 0.014763873 -0.042555306 -0.058316734 0.011188502 0.02802536
-0.03251858 0.027885145 -0.017983569 -0.06677131 -0.05623769 0.020976055 -0.022958495 -0.044138413
-0.05121055 0.012558029 -0.037905924 0.06358752 -0.048896797 -0.033480234 -0.00018598833 0.048130635
-0.022385102 -0.03669837 0.040991053 0.013340857 0.053668387 0.043887306 -0.027959397 -0.004352065
0.03384932 -0.035997167 0.04615135 0.047602784 -0.037189398 -0.0039831484 -0.01627574 -0.016478885
-0.044876505 0.008482035 0.053745084 -0.024803132 -0.011640404 0.0066887713 0.069322616 0.00053667184
-0.026600393 0.059271127 0.055690262 -0.046027165 0.021505548 0.048958417 -0.03457957 -0.049084812
-0.04292136 0.041233514 -0.045494046 0.057839166 0.016308084 0.0153082125 0.051618677 -0.015336732
-0.025500087 0.032399654 0.0027141084 -0.03721748 0.050557237 0.03427727 -0.059153132 -0.019378949
0.0013174354 -0.019379554 0.052915208 -0.038989153 -0.04767142 -0.026320487 0.050606005 0.030207573
0.034772515 -0.013182786 0.02766128 -0.011023124 -0.0047851033 0.026261361 -0.038740285 -0.049795225
-0.023970516 -0.047601487 -0.023485264 -0.047768462 0.009033121 0.005689996 0.04959367 0.032180715
-0.0045807264 -0.034035906 0.0005303274 0.0134335505 0.011515442 0.03050868 0.0026312873 0.041070547
0.020527907 -0.015362666 0.038680643 0.038243845 0.07446026 0.057946157 0.028925627 0.017025134

frame_features.cnn3D_1.bias f4 [16]
00000000: c1ad 9d34 c46d 3bb7 45ef df36 27ab 0836
00000010: 051b 2736 f43f b236 800c afb6 a90b c736
00000020: 7be0 0fb6 b539 9935 fd39 d4b6 16a9 1d34
00000030: 6bf5 e136 f15e 63b7 15a9 f836 b809 0f37
2.9369951e-07 -1.1171625e-05 6.6737725e-06 2.0365203e-06 2.4900667e-06 5.3122585e-06 -5.2168616e-06 5.9320196e-06
-2.1439325e-06 1.1416183e-06 -6.324843e-06 1.4683278e-07 6.734093e-06 -1.355236e-05 7.4106597e-06 8.525727e-06

frame_features.batchNorm3D_1.weight f4 [16]
00000000: d6cb 803f 1d69 7f3f 947a 7f3f 4d29 7a3f
00000010: 8d32 7a3f 6a5e 7f3f 1ce8 823f 99b3 803f
00000020: 9130 793f e1d4 7e3f 65f4 783f cc0e 803f
00000030: 3ff1 803f 21b7 813f bf37 7b3f 56a6 7c3f
1.0062206 0.99769765 0.99796414 0.9771927 0.97733384 0.9975344 1.0227084 1.0054809
0.9733973 0.9954358 0.97247916 1.0004516 1.0073622 1.0134012 0.98131937 0.9869131

frame_features.batchNorm3D_1.bias f4 [16]
00000000: bb4c 70bc 186e 353c 5744 fdbb 272c 11bc
00000010: 1cc9 3f3c 0387 063b e562 dc3b fd4c 0cbc
00000020: a2eb 9b3b 96db 0fbc 0b36 7dbc c292 3abc
00000030: c90f b5bc 1af4 043c fc8d d33b 9f2a b83b
-0.0146667315 0.011073612 -0.007729094 -0.008860624 0.011705663 0.002052725 0.0067256563 -0.008563277
0.004758314 -0.008780381 -0.015454779 -0.011387529 -0.022102254 0.008114839 0.006456135 0.005620315

frame_features.batchNorm3D_1.running_mean f4 [16]
00000000: 4971 b93d 93a5 e93c 8545 543e a68e ee3d
00000010: d679 87bd 1c5d 973d 3f23 b43e a4a5 06bc
00000020: 026b 28be fc58 6f3c d452 a5be ba58 53bd
00000030: 67a3 903e 70bd ab3d 3032 dabe 03ea a4bc
0.090548106 0.028521335 0.20729645 0.11648302 -0.06615035 0.07390806 0.3518314 -0.008218203
-0.1644707 0.014608618 -0.32289755 -0.051598288 0.28249666 0.08385742 -0.42616415 -0.020131117

frame_features.batchNorm3D_1.running_var f4 [16]
00000000: 70f2 183f 2d66 3b3f bd67 d63f ba98 973f
00000010: 1042 a93f b1d6 533f a8da d63f 6704 863f
00000020: ecf2 b93f 3ce0 643f b658 b73f afba 473f
00000030: 3fca 913f 69b2 6e3f c7fd f63f 358f 953f
0.5974493 0.7320278 1.6750408 1.1843483 1.3223286 0.8274947 1.6785479 1.0470093
1.4527259 0.89404655 1.4323947 0.7801923 1.1389846 0.9324098 1.9296197 1.1684328

frame_features.cnn3D_2.weight f4 [8, 16, 1, 1, 1]
00000000: ab94 713d fbd8 643e f7a2 05bd e581 34be
00000010: cb72 6cbe 9fc0 97bd 250b ae3d 6df7 84bd
00000020: d77a eb3d 0b42 3f3e 3f58 e7bd 7b72 a03d
00000030: 7517 a3bd ef6c 5d3e f2dc 6c3e 2933 32bd
00000040: 46fe ffbd a9c2 7ebe 8ea6 3cbe e9e5 6abe
00000050: b994 c23d 5b78 d6bc 3ccb 71be 7639 5abe
00000060: 1d91 473d bb82 3e3e 4cf8 15be a459 f83c
00000070: bd40 733d b407 36be 4195 413e 2f5b ed3d
00000080: f7bb 023b 9b96 203e 3d2f 40be 906e 43bd
00000090: f431 b53d 3c47 f7bd 8890 1ebd 090c 5bbb
000000a0: 9c9c 283e 2a92 e63c 304a 0d3e aada 433c
000000b0: 950c 82bd 6a86 7cbe 7ae5 293e 5217 623e
000000c0: c4a6 973c 23d5 143d d8c7 af3c fdbc 58be
000000d0: b304 f73d c857 1f3e f1d8 2cbd 5f16 87be
000000e0: 18ed e13c 282e 4dbe a921 c5bd d3e9 5dbe
000000f0: 6e47 5abe 9355 21be 97cb 4c3e c54d 5abe
00000100: eec8 4a3e 8a50 133e eefc f83d 1ef0 d83d
00000110: e17b 663e a099 4f3d 7d60 b63d 2400 63be
00000120: ac26 17bd d378 413c 8a73 c83c f41e 153e
00000130: 7d39 03be 772a 70be 7826 d73d 371e 5d3e
00000140: 3e51 163d f634 9ebc 4287 693e 5529 393e
00000150: 87c2 15be 7864 3b3d cb94 5b3e b98f 35bd
00000160: d4f1 07be c65c 063e 4917 35bd 3200 633e
00000170: 0d91 433e 5807 58be 7e6f ae3d 35ac 843d
00000180: 090d 79be 0537 06be 4ebc 50be b967 b83d
00000190: 6e3b 0f3e 4a21 82be 5f3b 02be 2348 babd
000001a0: d009 463e bb57 093e 128e 5f3d be70 593e
000001b0: e4e3 8ebd 9f23 05be 423f 02be 1507 943c
000001c0: fed8 703e 52bf 69bd 1459 c7bd c076 aabd
000001d0: f7e8 17be d1e4 883d 2879 213e d3f5 dabc
000001e0: 2d8c 51bd a643 59be c566 91bd d876 2c3e
000001f0: 15c9 973d c52b a3bd c501 00be a169 8a3d
0.05897967 0.22348396 -0.03262612 -0.17627676 -0.23090665 -0.074097864 0.084982194 -0.06492505
0.11498039 0.18677537 -0.112961285 0.078343354 -0.079634584 0.21623586 0.23131159 -0.04350582
-0.12499671 -0.24878944 -0.1842291 -0.22939266 0.09501023 -0.026180437 -0.23612684 -0.21310982
0.048722375 0.18604557 -0.14645499 0.030316181 0.05938791 -0.17776376 0.18904592 0.115896575
0.0019948462 0.15682451 -0.1876802 -0.047712862 0.088474184 -0.12074134 -0.038712054 -0.0033423922
0.16465992 0.028145868 0.13797832 0.011953989 -0.06350056 -0.2466065 0.16591445 0.22079208
0.018512137 0.036336076 0.021457598 -0.21165843 0.12061443 0.1556083 -0.04219908 -0.26384255
0.027578875 -0.20037138 -0.09625561 -0.21671228 -0.21316311 -0.157553 0.19999538 -0.21318729
0.19803211 0.14386192 0.121576175 0.10592674 0.22508194 0.050683618 0.089051224 -0.22168022
-0.036902115 0.011808592 0.024469156 0.14562589 -0.12814899 -0.23453699 0.10505384 0.21593557
0.036698572 -0.019312363 0.22805503 0.18082173 -0.14624988 0.04575011 0.21443479 -0.044326518
-0.13275844 0.13121328 -0.04421166 0.22168043 0.19098301 -0.21096551 0.08517359 0.064781584
-0.24321379 -0.13106926 -0.20384333 0.090041585 0.13987514 -0.25416023 -0.12717961 -0.0909579
0.1933968 0.13412373 0.05457885 0.21234414 -0.069770604 -0.1300187 -0.12719443 0.018069783
0.23520276 -0.057067223 -0.09733787 -0.08323431 -0.14834963 0.06684268 0.15768874 -0.026728546
-0.051159073 -0.21217212 -0.0709968 0.1684221 0.074114 -0.07967333 -0.12500675 0.06758428

frame_features.cnn3D_2.bias f4 [8]
00000000: 0f84 80aa 46bf d633 a014 5b35 409d 34b4
00000010: 57db fcad 67ad baae 4f91 e22f 91f9 b72e
-2.2829002e-13 9.999944e-08 8.161387e-07 -1.6821014e-07 -2.874649e-11 -8.489103e-11 4.1212408e-10 8.3662084e-11

frame_features.batchNorm3D_2.weight f4 [8]
00000000: 6d51 813f cc71 803f 6a9b 7f3f b2f2 823f
00000010: d47c 7d3f bd76 753f 096a 803f 48f3 823f
1.0102974 1.0034728 0.9984652 1.0230315 0.990186 0.95884305 1.0032359 1.0230494

frame_features.batchNorm3D_2.bias f4 [8]
00000000: 047c 793c 7feb d33b 3d01 abba 6b60 d33c
00000010: a0af b43a 9928 f1bc 7492 4c3c e5ab a03c
0.015227322 0.0064672823 -0.0013046634 0.025802812 0.001378525 -0.029438304 0.012486089 0.019613216

frame_features.batchNorm3D_2.running_mean f4 [8]
00000000: 3ab8 9b3e 6c17 65bf a860 8b3d 8764 72bf
00000010: ce08 423f cee3 433f 2a30 15bf 09d1 91bd
0.3041399 -0.89488864 0.06805545 -0.9468464 0.75794685 0.7651948 -0.5827662 -0.071199484

frame_features.batchNorm3D_2.running_var f4 [8]
00000000: 2b9b 823f 8091 2240 119a 103f 0d7a 2540
00000010: 350c ce3f c0f8 1d40 6d27 d83f 199e 043f
1.0203604 2.5401306 0.56485087 2.5855744 1.6097475 2.4683075 1.6887032 0.5180374

rnn.weight_ih_l0 f4 [4, 4096]
00000000: 6e6b ce3d 8015 5bbd c33d 903e 9bac 37be
00000010: 00eb 7698 1bb7 6022 42a6 713d 02f5 c63d
00000020: 5148 abbd ac80 7e3e 3fed 62be fc0d d93e
00000030: 62d4 8538 3beb 7720 30ef d13e 38b7 f2b8
00000040: 47bb adbe a4ad a33d 6c55 133d 037a 8cbe
00000050: f2f9 ee3d a8f8 cc3d 8ef2 66bd 5f86 a23d
00000060: 6a16 35be 68bb 4fbe 6b87 f23d 15ed 393e
00000070: 4660 c9a2 bb72 8b20 47a2 453e c786 0f3a
00000080: 9c81 17be c6c1 d93d 9320 613b e82d be3d
00000090: 0146 479d c638 f082 b852 123d 3c5a f936
000000a0: a22d 3ebb 7ea2 8cbe fd21 dcbd 6c08 88be
000000b0: 9b2c 0f89 d63d b085 dc38 f23d 0e70 9cb9
000000c0: 554b 11be 9b15 80be e048 793e 43b7 aa3d
000000d0: b3d3 838f 0dd3 a80e 87d0 76bc 805f 80bd
000000e0: 098a f7bd a0e9 c8bd a8ce 073e a859 81bc
000000f0: 36d3 8017 b9bf 3880 76b4 c33c c330 d6b9
00000100: ad3d d03d 0ce3 173c 0e88 51be 7e32 c13e
00000110: 4226 a93e 515f 97be f2d9 1abc e5b6 0d3d
00000120: 646b 2fbc 1a12 703e 9066 84be 2d1e 563d
00000130: 6886 9b3d cd76 a03d a6b3 253e affb 303b
00000140: caab 8e3c 0954 d4bd 0792 9b3d c1e9 0dbe
00000150: b959 ad26 2808 330d 1276 94be 13a5 1ab7
00000160: 8d98 5bbe 1ac6 db3c 54c1 66be 2039 52be
00000170: 87dd 8ebe 8aa1 6abd 03b9 e23c e45b 793b
00000180: 0ce6 b1bc cc4c 87be c9df a83c 5383 29be
00000190: 2772 323c d42a 15bd f88b 09be 6ef8 84ba
000001a0: 2005 96bd 628d 2a3d a4f0 b33e 96c8 473e
000001b0: 4efc a73e 2c5d 2f3d bc26 55be 18f1 f53c
000001c0: 1bc4 24be 3334 0cbe 313a 9e3e 0e89 ca3e
000001d0: 019d 2a16 7ea9 6a0b 6455 5a3e 111a 4839
000001e0: 1f98 e33b 93e7 94bb 82e8 9abd 13f6 433e
000001f0: 206d 1725 e222 1d2b 3343 c83d cee5 7b3b
00000200: 06c8 45bc ae81 d5bc 7507 713d 308c 89be
00000210: ea9d 69bd 88e9 76be 98c4 e53d 112a 963d
00000220: 23c3 e83d ba1a b73d a161 95be d98e 923e
00000230: 3edd a4be a715 05bd ba6d 573e 8a08 19bc
00000240: 2094 f73b e72a 1e3e 5e71 4b3e 144d d63e
00000250: 3ec2 14bd 1498 dd3d 193c 84bc 53a2 5a3d
00000260: daa0 80be 6077 23be cd4c bbbd 29bc 9c3b
00000270: c10d 4b3d 2fc7 b7bd ac89 88be 73e3 563d
00000280: d065 87bd 65c4 0c3e 6e7a 4ebe 006e b4be
00000290: 363b ee3e 8349 593d 209d 683e c4f0 e4bd
000002a0: b2f2 9f3c 60a1 19be 3700 be3c 81e4 41bd
000002b0: f14a 332d 194c 8ca8 5cf9 4f3e 2114 e93d
000002c0: 7bf5 88bd b238 90be ba54 a83d 39e6 59be
000002d0: 637b e493 ba98 3a1f d3fd 243e 5931 bbbd
000002e0: c087 b63a 3ca0 bcbc 8972 133d 1b55 12be
000002f0: ba39 8b12 0ba4 1680 ccc5 533c b629 93b8
00000300: 87ac bb3c 565b 0dbe 4809 82be 2363 0d3e
00000310: 7157 0abd aca3 c233 2f0f 343e 22d1 8dba
00000320: dc88 1cbe 5aa2 cb3d c71e 9fbe 8e99 eebc
00000330: c6f5 51a7 caa3 b89d 92b9 1b3e ba30 0eb9
00000340: bef1 7f3d 9804 d4bc f6f8 123e fb72 4fbe
00000350: 75ff 453e 5e30 163e ff70 493e 7969 18bd
00000360: 1cb8 b13d 595a 07be fa56 1f3d d7b9 e43e
00000370: d2df 5730 3218 8b38 54a6 91bd f653 403d
00000380: 3bb4 e03d c0f8 efbd da7d b03e 8576 2b3e
00000390: 4e2f b5be 92aa a43d ba05 533e 9a97 5a3c
000003a0: 2dc7 8238 9d8b 093e 4d9e 28be df98 c93e
000003b0: 1ae7 942c 0ec9 ff22 d4d1 d53e 05fe a23d
000003c0: 7710 e0bd fe2f 293e d7ba 81be f05b adbe
000003d0: a84f 09a8 f302 bd2c ed5e 3c3e 5f48 473b
000003e0: fdaf 24be 1340 b1bc 2aed 63be 694d b4be
000003f0: b918 b320 2a9d 5eaa 3b49 b8be a344 c33d
0.10079084 -0.0534873 0.2817212 -0.17936938 -3.19134e-24 3.0454596e-18 0.058996446 0.097147
-0.08363403 0.24853772 -0.22160815 0.42393482 6.3814936e-05 2.0999545e-19 0.41002798 -0.000115735864
-0.33931944 0.07992104 0.035970137 -0.27436838 0.11668767 0.10008365 -0.056383662 0.079357855
-0.17684332 -0.20286334 0.11842235 0.18156846 -5.4583093e-18 2.3623438e-19 0.19300185 0.00054751005
-0.14795536 0.106326625 0.003435169 0.092861 -2.6373622e-21 -3.5297417e-37 0.035723418 7.431283e-06
-0.0029018898 -0.27467722 -0.1074867 -0.26568925 -1.7233972e-33 -1.6573675e-35 0.11827251 -0.00029838126
-0.14188893 -0.25016484 0.24344206 0.08335736 -1.2999141e-29 4.1618432e-30 -0.015064365 -0.06268215
-0.12086875 -0.098101854 0.13262427 -0.015789822 8.325123e-25 -5.211565e-39 0.023889761 -0.0004085359
0.10168014 0.009270441 -0.20462057 0.37733835 0.33037 -0.29564908 -0.009451376 0.03459825
-0.010706756 0.23444405 -0.258595 0.05227487 0.07593995 0.078351595 0.16181812 0.0027005484
0.0174159 -0.10367591 0.07596212 -0.13858701 1.2028606e-15 5.516845e-31 -0.2899633 -9.21755e-06
-0.21444912 0.02682786 -0.22534686 -0.20529604 -0.27903387 -0.057282962 0.027676111 0.0038049156
-0.02171614 -0.2642578 0.020614522 -0.16554002 0.010891474 -0.036417797 -0.134323 -0.0010144839
-0.07325196 0.04163874 0.35144532 0.19510111 0.3280968 0.042813465 -0.20815557 0.030022189
-0.16090433 -0.13691787 0.30903772 0.3955769 1.3782032e-25 4.5194272e-32 0.21321636 0.00019083197
0.0069456245 -0.0045442074 -0.075638786 0.19136839 1.3134135e-16 5.5826014e-13 0.09778442 0.0038436535
-0.012071615 -0.026062813 0.058845002 -0.26864767 -0.057035364 -0.24112523 0.11219138 0.07332242
0.113653444 0.089406446 -0.29176047 0.2862461 -0.32200044 -0.032491352 0.21037951 -0.009340415
0.0075554997 0.15446053 0.19867465 0.4185568 -0.036318056 0.10820022 -0.016141938 0.05337746
-0.2512272 -0.15963507 -0.09145508 0.0047831726 0.049573664 -0.08973538 -0.26667535 0.052463006
-0.06611216 0.13746794 -0.2016389 -0.35240173 0.4652955 0.053048622 0.22716188 -0.11178735
0.019524906 -0.15002966 0.023193462 -0.04733706 1.0191612e-11 -1.5576124e-14 0.20309967 0.113807924
-0.06687447 -0.28168255 0.08219285 -0.21279229 -5.767696e-27 3.9513364e-20 0.16112451 -0.09140272
0.0013925955 -0.023025624 0.0359979 -0.14290278 8.786364e-28 -2.079228e-39 0.012925576 -7.0172755e-05
0.022909416 -0.13804373 -0.25397706 0.13807349 -0.033774797 9.063601e-08 0.17583917 -0.0010819773
-0.15286583 0.099430755 -0.3107817 -0.029125955 -2.913781e-15 -4.887375e-21 0.15207508 -0.00013560327
0.062486403 -0.025881097 0.14352784 -0.20258705 0.1933573 0.14666888 0.19672011 -0.03720996
0.08677694 -0.13218059 0.038901307 0.44673035 7.853461e-10 6.632543e-05 -0.07111803 0.04695507
0.10971876 -0.11717367 0.34471017 0.1674443 -0.35387653 0.08040346 0.20607653 0.013341809
6.2359824e-05 0.13432164 -0.16466637 0.39374444 4.2320704e-12 6.9330763e-18 0.4176165 0.07958607
-0.109406404 0.16522214 -0.2533786 -0.33859205 -7.6223e-15 5.3720305e-12 0.18395586 0.0030408127
-0.16082759 -0.021636998 -0.2225844 -0.3521531 3.034014e-19 -1.9772088e-13 -0.3599337 0.09534576

rnn.weight_hh_l0 f4 [4, 4]
00000000: e0d3 2c3d 3eb0 f83c d7a1 873e b23e 113e
00000010: 743a 83be a036 d5be eac4 f9be a695 d6bd
00000020: 860a 30bd ca7c 733d c2af 863e 5d39 4b3e
00000030: 2db0 483c b0fc af3e 8da1 d63e edb4 2d3e
0.042194247 0.030357476 0.26490662 0.14184073 -0.25630534 -0.41643238 -0.48783046 -0.10477762
-0.042978786 0.05944518 0.26305968 0.19846101 0.012249035 0.34372473 0.41920128 0.16963549

rnn.bias_ih_l0 f4 [4]
00000000: 6e83 373d 9ac9 823d 2dab d03e a8f5 a1be
0.044803075 0.06386109 0.40755597 -0.31632733

rnn.bias_hh_l0 f4 [4]
00000000: 207e 80be 365e 1d3e 3220 bc3d 8180 1b3e
-0.25096226 0.1536797 0.09185828 0.15185739

rnn.weight_ih_l0_reverse f4 [4, 4096]
00000000: babf 42be 3a08 003e 2445 99be 8a12 093e
00000010: 1c3a ca83 707a 8016 df3b c43e 9997 213d
00000020: d392 85bd 3454 5dbe 1d86 07be ef65 80be
00000030: 248d e5ab d08c 7fbc b48f 92be d545 72be
00000040: d1d5 463e 4676 5bbd b6de cebd e38b be3d
00000050: b059 953d 68b6 863e 1638 e03e 280d b1be
00000060: b0d2 ccbe 73f2 f9bd 6816 683e 2316 bdbd
00000070: 8300 b4bd b932 5fbe f724 00be 331d 30be
00000080: 9c7d 243e 4362 cc3e aa7f 5dbe b1ae aabe
00000090: 6adc 2d8e 85be 4f88 eb00 213e 5643 583e
000000a0: 80bb 203e 7885 c43d e9cf 753e 084f dcbd
000000b0: dd9f 159b e648 3d0c 58ac 423e 8c38 c4bd
000000c0: 3d85 9c3e e26d 033e 0d08 a83c 664e ba3e
000000d0: 49cc 4814 42cc ae8f 40b6 893e 704a 283d
000000e0: be54 713e c5dc 66be 6065 3e3e 3cd8 a1be
000000f0: 8920 ffa2 b36c 1480 b57f 8bbe 9297 5bbd
00000100: 64a8 3cbe cf70 3cbe b4c3 ad3e 1dfa 563e
00000110: 870b 923e be07 5e3e 6fb9 8f3e a964 8dbe
00000120: 2554 22be e329 23be dd53 e13c 0608 513e
00000130: 67d6 4fbd e227 56be 750b 9c3d 4829 e0be
00000140: c5f9 9f3e 52c6 3d3e 7d7a af3e 73e3 7cbe
00000150: 17a5 3123 adf0 7bb5 4cb6 c3be 21de 94be
00000160: 9df1 78bd 6a1e a73e 4b28 db3e 82a4 8a3e
00000170: 43b4 233e a885 883e 990e b03d 6cc5 ebbc
00000180: 229a 7abe e6ca fdbd 5009 bcbe 1686 463e
00000190: 3d84 f7bd 7134 58bd e56c febc 4a6e 5a3e
000001a0: 9898 053e ef40 bfbe de2c 9b3d 71c9 6abd
000001b0: 8bdb 97be 5d4a 013e 5edf 3fbe 8876 17be
000001c0: a405 703e 57d2 8a3e 8b10 30bd ed12 cd3e
000001d0: 5905 780a 8464 83a0 5fc1 853e 26ee 1cbe
000001e0: 09a7 583c 23dd d83e 8f05 c43e fa06 893e
000001f0: 665d ab11 afad ac27 47bd 96be ab8f 1abe
00000200: 77a8 3c3d 513c 34be 3dd9 c7be 1f86 683e
00000210: 17d4 643e 9ddd 94be b84d bd3e 34fd 3abe
00000220: 522f 8a3e 8b37 4a3e a6b9 acbe 09d0 a43e
00000230: 7008 243c 5b0c 81bb 443f 9cbd 386b 883e
00000240: e665 34be f2f8 45be 59b4 a63e 9d28 d43e
00000250: 1331 583e 8ae2 4e3e 4fc0 343e e229 2abe
00000260: 0b19 abbe 9582 563e f05d e93e ae0b 39be
00000270: 6ba0 ac3e 14b5 1c3e 47e8 ba3d 2ca3 4cbe
00000280: d2c1 c1bd 8981 243d 118e 5a3c dac3 aabe
00000290: 90f6 b53e f366 4dbe e733 b13e 5d6f 1cbe
000002a0: ee78 f03c 280d 9ebe 9f02 53bd 6057 bf3d
000002b0: c8ba 8725 a39f a627 1bfd ccbe 6949 a3be
000002c0: e966 5dbe 123d 783e 3c47 e7bd 05a3 013e
000002d0: d7fa 180d 7227 e985 acbd a0bd e773 a43e
000002e0: 1121 1e3e d989 cb3d 22ca 14be 9e09 bebe
000002f0: 8177 0094 5334 8d21 370e a03e 63ec 83be
00000300: 62fa 5ebd 3887 cb3e 0af0 a63e 7bec f0bd
00000310: e201 493e 4e71 8733 0dfa 3e3e c8c1 b33e
00000320: 78ab a7be 3819 c73e 923e 9fbe a512 333e
00000330: c509 3fad 882f ea3d a2eb 003d c102 d2bc
00000340: f9ac f33b d676 be3e 6c35 c63e 5886 403d
00000350: 8bd5 a93e dcf2 13bd e1ae 0bbe e24f 0ebe
00000360: ee1d 81be 5a8f 36be 6139 6e3e 746e 1fbe
00000370: 9c92 163d 9cc1 e33d 50da af3e 41ee 803e
00000380: 8ecc 9abd f47d 8a3d 7593 ab3e 0457 6bbe
00000390: 620a 2fbe e799 ff3d 3073 6dbe 378e 3bbd
000003a0: 97b9 993c 8df3 35be c062 0abd 921e 57be
000003b0: 555e 3626 424c adb5 6e75 7d3e bd66 843e
000003c0: 5880 133e 124f 9c3e 1c0b e4bb 5c40 35be
000003d0: d80c 953a 8eb1 3438 de50 d93e 7232 91bd
000003e0: 478c 56be f8dd 7e3d 2b0b cbbe 4814 93be
000003f0: eb27 dd91 752d b781 039f e43e a0ec a5be
-0.1901845 0.12503138 -0.29935563 0.13385978 -1.1885834e-36 2.0756784e-25 0.38326928 0.039451215
-0.06522145 -0.21614152 -0.13234754 -0.2507777 -1.6310603e-12 -0.015597537 -0.28625262 -0.23659451
0.19417502 -0.05357959 -0.101010725 0.09304025 0.07292497 0.2631104 0.4379279 -0.3458035
-0.40004492 -0.12204447 0.22664797 -0.09232738 -0.0878916 -0.21796693 -0.12514101 -0.17198639
0.16063541 0.39918718 -0.21630731 -0.33336404 -2.1430022e-30 -6.251575e-34 0.15723006 0.21119437
0.15696526 0.0959577 0.24005093 -0.107572615 -1.2376646e-22 1.4581967e-31 0.19011056 -0.09581098
0.30570403 0.12834886 0.020511651 0.36387938 1.0137708e-26 -1.7236402e-29 0.26896858 0.041086614
0.23567483 -0.22545154 0.18593359 -0.31610286 -6.9152336e-18 -1.875704e-39 -0.2724587 -0.053611346
-0.18423611 -0.18402408 0.33938372 0.20993848 0.2852442 0.21682641 0.28071162 -0.2761586
-0.15852411 -0.15933947 0.02750581 0.20413217 -0.05074158 -0.20913652 0.07619373 -0.43781495
0.31245247 0.18532684 0.3427314 -0.2469614 9.630148e-18 -9.3855016e-07 -0.3822502 -0.2907572
-0.060777295 0.32640392 0.4280418 0.27078635 0.15986733 0.26664472 0.08596534 -0.028780662
-0.2447286 -0.123922154 -0.36725855 0.19387087 -0.12085769 -0.052784387 -0.031057784 0.21331134
0.13046491 -0.37354228 0.07576917 -0.057321016 -0.29659685 0.12626024 -0.18737552 -0.1479131
0.23439652 0.27113602 -0.042984527 0.40053502 1.19417714e-32 -2.225878e-19 0.26124093 -0.15325221
0.013223418 0.42356214 0.3828549 0.26763135 2.7036604e-28 4.79279e-15 -0.29441282 -0.15093867
0.046059098 -0.17601134 -0.39032927 0.22707413 0.22346531 -0.29075328 0.36973357 -0.18260652
0.26989228 0.1974775 -0.3373539 0.32189968 0.010011777 -0.0039382405 -0.076292545 0.266443
-0.17616996 -0.19333246 0.3255947 0.41437235 0.2111247 0.20203605 0.17651485 -0.1661754
-0.33417544 0.2094825 0.4557948 -0.18070862 0.3371614 0.15303451 0.09126335 -0.1998412
-0.094607964 0.040162597 0.013339535 -0.33352548 0.35539675 -0.20058803 0.3460991 -0.15276857
0.029354539 -0.30869412 -0.05151617 0.09342837 2.3545335e-16 4.6247334e-15 -0.40036854 -0.31891945
-0.21621288 0.24242046 -0.11292884 0.12659843 4.7140554e-31 -2.1925705e-35 -0.07848677 0.32119676
0.15442301 0.09938402 -0.14530233 -0.37116712 -6.4859165e-27 9.568382e-19 0.31260845 -0.25766286
-0.054438002 0.397516 0.3260501 -0.11763855 0.19629624 6.3070374e-08 0.18650074 0.3510878
-0.32748008 0.38886428 -0.31102425 0.17487581 -1.0859262e-11 0.11434847 0.031474717 -0.025636079
0.0074363914 0.3720004 0.38712633 0.04700312 0.33170733 -0.03612028 -0.1364093 -0.1389766
-0.25218147 -0.17828122 0.23264076 -0.15569478 0.03676091 0.111209124 0.34346247 0.25181773
-0.07558547 0.06762305 0.33510938 -0.22982413 -0.17093804 0.124805264 -0.23188472 -0.045789924
0.018765254 -0.17768688 -0.03378558 -0.21007755 6.327178e-16 -1.2911698e-06 0.24751827 0.25859633
0.14404428 0.30529076 -0.006959332 -0.17700332 0.0011371626 4.3080705e-05 0.4244451 -0.070897
-0.20951949 0.062223405 -0.39656958 -0.2872641 -3.4892253e-28 -6.728881e-38 0.44652566 -0.32407093

rnn.weight_hh_l0_reverse f4 [4, 4]
00000000: 8ab5 383d f142 eebe 1263 a23e 9198 0ebc
00000010: ba58 00be e210 dd3d 5d49 d83e 4241 953e
00000020: 656d ce3e b64c cfbd d90e 473e 2650 563e
00000030: b462 853e 255d ba3e 1cd3 99be 6096 273e
0.045095004 -0.46535447 0.3171621 -0.008703367 -0.12533846 0.10794236 0.42243472 0.2915135
0.40317836 -0.10122053 0.19439258 0.20929012 0.26051867 0.3639919 -0.30043876 0.16365957

rnn.bias_ih_l0_reverse f4 [4]
00000000: 10c1 c6be c79f ca3e 0136 fb3d 187b 7a3d
-0.3881917 0.39575025 0.1226616 0.061152548

rnn.bias_hh_l0_reverse f4 [4]
00000000: 527a cabd 5502 a5be be1c b3bd 9a7f febe
-0.09886612 -0.32228342 -0.087457165 -0.49706727

rnn.weight_ih_l1 f4 [4, 8]
00000000: 7540 0e3f 4090 263f 8c06 a5bd d7ec 31be
00000010: 35d7 193d a736 8fbd 2fbf 3f3e 9900 17bf
00000020: 8ab9 533f 8d3f 9ebd 1368 bebd 75ef 27be
00000030: d6ac 9a3e 38c8 933e e320 ffbe 22b1 b3bd
00000040: cb21 433e dabb 913d 2097 dcbd 0de5 0ebf
00000050: 7324 d63e cb50 fa3e 77bf f9be 774b 893e
00000060: 5144 8abe 00a4 0e3f 11aa d1be 3973 a6be
00000070: 515c 88bd a3b1 e8bd 43f2 893e 0514 b4be
0.55567104 0.6506386 -0.08057889 -0.17375503 0.037558753 -0.06992846 0.18725275 -0.58985287
0.82704985 -0.07726965 -0.09297194 -0.1639994 0.30209988 0.28863692 -0.49829778 -0.0877402
0.1905586 0.07115908 -0.10771012 -0.55818254 0.41824684 0.48889765 -0.4877889 0.26815388
-0.27005246 0.55718994 -0.40950063 -0.32509783 -0.06658233 -0.113620065 0.26942644 -0.35171524

rnn.weight_hh_l1 f4 [4, 4]
00000000: 00ab 49be 9cd7 2b3e b24c 17be 2d61 353f
00000010: 7b6e 99bd 9470 67bd ea61 4a3e aaac 943e
00000020: e7ae 533e 1e9a aa3e 9499 1cbd 2cc2 843e
00000030: 6da3 c73e 8eae a43e 0ef0 a73e 1052 f93e
-0.19694138 0.16781467 -0.1477535 0.70851403 -0.074917756 -0.056503847 0.19763914 0.29037982
0.20672189 0.33320707 -0.0382324 0.2592939 0.3899187 0.32164425 0.32800335 0.4869542

rnn.bias_ih_l1 f4 [4]
00000000: 9200 1a3f c46d 873c 6bfd 4ebd a48e a6be
0.6015712 0.016531833 -0.050534647 -0.325307

rnn.bias_hh_l1 f4 [4]
00000000: d36a 08be d076 703e f457 583e ef74 fe3e
-0.13322 0.23482823 0.21127301 0.49698588

rnn.weight_ih_l1_reverse f4 [4, 8]
00000000: 9d25 62be 5718 00bf 9a7d 2e3e 20b7 b43e
00000010: 0e87 74be 6765 e7be b580 1ebe 97fe 74bd
00000020: 6f18 a3be 4b51 21bf 8ee0 b23e eb6d ce3e
00000030: 1d3c 94bd a813 b4be d26d d13e 554c 123e
00000040: 3659 0f3e fca1 ca3e 3fb1 25bc 8ea2 393d
00000050: e3cb e93e 4717 483e 399c b4be 1345 aebe
00000060: ba00 a23e 368d debe feb8 bbbe c5f0 723d
00000070: bb1f bb3e 5cae 99bd cb41 f6be e610 923d
-0.22084661 -0.5003714 0.170401 0.35295963 -0.23879644 -0.4519455 -0.15478785 -0.05981311
-0.3185458 -0.6301467 0.34936947 0.40318236 -0.07238028 -0.35171247 0.409041 0.14286931
0.13998875 0.3957671 -0.01011306 0.04532104 0.45663366 0.1954013 -0.35275438 -0.34037074
0.3164118 -0.4346711 -0.36664575 0.059311647 0.36547646 -0.075039595 -0.4809707 0.07132129

rnn.weight_hh_l1_reverse f4 [4, 4]
00000000: 3c71 183f 7cf3 48bd aa07 c4bc a0af f5be
00000010: 0d8e 8bbe a954 d6bd 95d3 343e cfc6 3d3d
00000020: 79df 0abd 9bb5 ba3c d2ac 8d3e c465 8a3e
00000030: 9cd4 d9be 850b d3bd e40e 83bc 6005 8f3e
0.5954778 -0.04906033 -0.023929436 -0.47985554 -0.27256814 -0.104653664 0.17658837 0.046332177
-0.033904526 0.022791674 0.27670914 0.27030766 -0.4254502 -0.103049316 -0.015998311 0.27933788

rnn.bias_ih_l1_reverse f4 [4]
00000000: 7e80 09bd b063 e5bd ee25 183f 9244 6c3e
-0.033569805 -0.112006545 0.59432876 0.23073032

rnn.bias_hh_l1_reverse f4 [4]
00000000: 69ba 713e 3df1 14bf 5473 0ebe 377f 183f
0.23606266 -0.581806 -0.13911182 0.59569114

rnn.weight_ih_l2 f4 [4, 8]
00000000: 5b14 293e 2d81 cc3e 72a8 b73e ced4 223f
00000010: 593f b0bc 01f3 e8be ba09 323d f2ef a73e
00000020: 032f 303f 7b7c c83e 11d6 283f 4e8f 273f
00000030: 3a82 8cbe 2b58 2abf 5036 d53e e73d cf3c
00000040: 7f2e 003f 2e5e ba3e 852e 2f3f d174 333f
00000050: 1550 1cbf 8577 8abe 3982 943e c8fd c33e
00000060: cddb 1f3e 6ace 323f c2a3 623e b81f 0c3f
00000070: 94b1 e53c a72f c2bd c0f6 e63e 9558 033f
0.16511671 0.39942303 0.358707 0.63605964 -0.021514582 -0.45497897 0.043466307 0.3280025
0.68821734 0.3915747 0.6595164 0.6545304 -0.27443105 -0.66540784 0.41643 0.025298072
0.5007095 0.36399978 0.6843036 0.7010012 -0.61059695 -0.2704431 0.29005602 0.38279557
0.15611191 0.6984621 0.22132781 0.547359 0.028038777 -0.09481745 0.4511013 0.5130704

rnn.weight_hh_l2 f4 [4, 4]
00000000: 4953 18be 92db 46be 8a42 3abc e0cd c83e
00000010: 600d ef3e b469 b73e ccd3 12be 8409 32bd
00000020: 81ad 4c3d 62ef e63e 8442 9c3d 7f48 4a3e
00000030: e518 f53d 80f7 4cbe 01ed db3d c8ab f23e
-0.14875521 -0.19419697 -0.011368403 0.3921957 0.46689892 0.35822833 -0.14338607 -0.043466106
0.049970154 0.4510451 0.07629874 0.19754218 0.11967639 -0.20016289 0.10738564 0.47396684

rnn.bias_ih_l2 f4 [4]
00000000: da03 123f 9fd0 143e b8a5 823e 07d9 963e
0.57037127 0.14532708 0.25517058 0.29462454

rnn.bias_hh_l2 f4 [4]
00000000: cdd9 34be 06f0 2a3f aae2 e83e 0189 593f
-0.1766121 0.66772497 0.4548543 0.84974676

rnn.weight_ih_l2_reverse f4 [4, 8]
00000000: 7ffa 1a3f 99af 263e c172 253f 5f6d 763e
00000010: 1e72 163e 4ea7 99be 11e5 293f 9e13 bdbe
00000020: 4c1e 163f 99dd 323d 36e5 433f 4458 6b3e
00000030: 5667 3ebe 61f4 1e3e 2c13 433f e0f5 ab3d
00000040: 5a8b f63d 8a95 8c3e 35f7 2dbc da45 a63e
00000050: ecd7 4ebe ee6f fabe 5b8b 443e 7209 4c3f
00000060: ff90 a53e 7a63 f23e 4a13 bb3e 8bc5 883d
00000070: 0c58 8ebd e42d 2fbf 0f0d 9e3e 243d 403e
0.60538477 0.16277923 0.64628226 0.2406516 0.1469197 -0.30010456 0.6636515 -0.3692903
0.5863998 0.043668363 0.76521623 0.2298289 -0.18594107 0.1552291 0.7620113 0.08396506
0.12038298 0.2745784 -0.010618021 0.32475168 -0.20199555 -0.4891352 0.19193785 0.7970191
0.32337186 0.4734152 0.36538154 0.06678303 -0.06950387 -0.684294 0.30869338 0.18773323

rnn.weight_hh_l2_reverse f4 [4, 4]
00000000: 0459 8abe d61e 663d b2d1 163f 6ef5 f93e
00000010: 65b0 4e3f e4f7 ad3e 32a3 6aba ad85 8e3e
00000020: 27c1 923e bb1b 233f fb72 983e 76b4 2f3f
00000030: f552 043f 56db ca3d 6198 ce3e 1320 373f
-0.2702104 0.05618175 0.5891372 0.4882006 0.80737907 0.33978188 -0.00089507096 0.27836362
0.2866299 0.6371419 0.29775223 0.68634737 0.5168908 0.09905116 0.4035063 0.71533316

rnn.bias_ih_l2_reverse f4 [4]
00000000: d8a7 2dbe bca3 283f 0232 2c3f 9e90 bc3e
-0.16958559 0.6587484 0.67263806 0.36829084

rnn.bias_hh_l2_reverse f4 [4]
00000000: 17f7 663e dc0e 403f d730 833e fba4 99bc
0.22555195 0.75022674 0.256232 -0.018755427
